{"format": "graph-model", "generatedBy": "2.16.2", "convertedBy": "TensorFlow.js Converter v4.20.0", "signature": {"outputs": {"Identity:0": {"name": "Identity:0"}}}, "modelTopology": {"node": [{"name": "ConstantFolding/PartitionedCall/model_13/tf.math.divide/truediv_recip", "op": "Const", "attr": {"value": {"tensor": {"dtype": "DT_FLOAT", "tensorShape": {"dim": [{"size": "1"}, {"size": "1"}, {"size": "1"}]}}}, "dtype": {"type": "DT_FLOAT"}}}, {"name": "12755", "op": "Const", "attr": {"value": {"tensor": {"dtype": "DT_FLOAT", "tensorShape": {"dim": [{"size": "1"}, {"size": "2"}, {"size": "2058"}]}}}, "dtype": {"type": "DT_FLOAT"}}}, {"name": "12747", "op": "Const", "attr": {"value": {"tensor": {"dtype": "DT_INT64", "tensorShape": {"dim": [{"size": "3"}]}}}, "dtype": {"type": "DT_INT64"}}}, {"name": "12749", "op": "Const", "attr": {"value": {"tensor": {"dtype": "DT_INT64", "tensorShape": {"dim": [{"size": "3"}]}}}, "dtype": {"type": "DT_INT64"}}}, {"name": "PartitionedCall/model_13/tf.strided_slice_19/ones_like", "op": "Const", "attr": {"dtype": {"type": "DT_INT64"}, "value": {"tensor": {"dtype": "DT_INT64", "tensorShape": {"dim": [{"size": "3"}]}}}}}, {"name": "12757", "op": "Const", "attr": {"dtype": {"type": "DT_FLOAT"}, "value": {"tensor": {"dtype": "DT_FLOAT", "tensorShape": {"dim": [{"size": "1"}, {"size": "2"}, {"size": "2058"}]}}}}}, {"name": "12741", "op": "Const", "attr": {"value": {"tensor": {"dtype": "DT_INT64", "tensorShape": {"dim": [{"size": "3"}]}}}, "dtype": {"type": "DT_INT64"}}}, {"name": "12743", "op": "Const", "attr": {"dtype": {"type": "DT_INT64"}, "value": {"tensor": {"dtype": "DT_INT64", "tensorShape": {"dim": [{"size": "3"}]}}}}}, {"name": "PartitionedCall/model_13/tf.strided_slice_16/StridedSlice/strides", "op": "Const", "attr": {"value": {"tensor": {"dtype": "DT_INT64", "tensorShape": {"dim": [{"size": "3"}]}}}, "dtype": {"type": "DT_INT64"}}}, {"name": "PartitionedCall/model_13/tf.reshape_11/Reshape/shape", "op": "Const", "attr": {"dtype": {"type": "DT_INT32"}, "value": {"tensor": {"dtype": "DT_INT32", "tensorShape": {"dim": [{"size": "4"}]}}}}}, {"name": "PartitionedCall/model_13/tf.compat.v1.transpose_19/transpose/perm", "op": "Const", "attr": {"value": {"tensor": {"dtype": "DT_INT32", "tensorShape": {"dim": [{"size": "4"}]}}}, "dtype": {"type": "DT_INT32"}}}, {"name": "PartitionedCall/model_13/tf.compat.v1.transpose_20/transpose/perm", "op": "Const", "attr": {"dtype": {"type": "DT_INT32"}, "value": {"tensor": {"dtype": "DT_INT32", "tensorShape": {"dim": [{"size": "4"}]}}}}}, {"name": "12745", "op": "Const", "attr": {"value": {"tensor": {"dtype": "DT_FLOAT", "tensorShape": {"dim": [{"size": "1"}, {"size": "1"}, {"size": "16"}, {"size": "1"}]}}}, "dtype": {"type": "DT_FLOAT"}}}, {"name": "PartitionedCall/model_13/tf.compat.v1.transpose_25/transpose/perm", "op": "Const", "attr": {"value": {"tensor": {"dtype": "DT_INT32", "tensorShape": {"dim": [{"size": "4"}]}}}, "dtype": {"type": "DT_INT32"}}}, {"name": "PartitionedCall/model_13/tf.reshape_14/Reshape/shape", "op": "Const", "attr": {"dtype": {"type": "DT_INT32"}, "value": {"tensor": {"dtype": "DT_INT32", "tensorShape": {"dim": [{"size": "3"}]}}}}}, {"name": "12751", "op": "Const", "attr": {"dtype": {"type": "DT_INT64"}, "value": {"tensor": {"dtype": "DT_INT64", "tensorShape": {"dim": [{"size": "3"}]}}}}}, {"name": "12753", "op": "Const", "attr": {"dtype": {"type": "DT_INT64"}, "value": {"tensor": {"dtype": "DT_INT64", "tensorShape": {"dim": [{"size": "3"}]}}}}}, {"name": "PartitionedCall/model_13/tf.strided_slice_18/ones_like", "op": "Const", "attr": {"value": {"tensor": {"dtype": "DT_INT64", "tensorShape": {"dim": [{"size": "3"}]}}}, "dtype": {"type": "DT_INT64"}}}, {"name": "PartitionedCall/model_13/tf.concat_20/concat/axis", "op": "Const", "attr": {"value": {"tensor": {"dtype": "DT_INT32", "tensorShape": {}}}, "dtype": {"type": "DT_INT32"}}}, {"name": "PartitionedCall/model_13/tf.math.multiply_195/Mul/y", "op": "Const", "attr": {"dtype": {"type": "DT_FLOAT"}, "value": {"tensor": {"dtype": "DT_FLOAT", "tensorShape": {"dim": [{"size": "1"}, {"size": "1"}, {"size": "2058"}]}}}}}, {"name": "12679", "op": "Const", "attr": {"dtype": {"type": "DT_FLOAT"}, "value": {"tensor": {"dtype": "DT_FLOAT", "tensorShape": {"dim": [{"size": "3"}, {"size": "3"}, {"size": "128"}, {"size": "64"}]}}}}}, {"name": "12691", "op": "Const", "attr": {"dtype": {"type": "DT_FLOAT"}, "value": {"tensor": {"dtype": "DT_FLOAT", "tensorShape": {"dim": [{"size": "64"}]}}}}}, {"name": "12703", "op": "Const", "attr": {"dtype": {"type": "DT_FLOAT"}, "value": {"tensor": {"dtype": "DT_FLOAT", "tensorShape": {"dim": [{"size": "3"}, {"size": "3"}, {"size": "64"}, {"size": "64"}]}}}}}, {"name": "12715", "op": "Const", "attr": {"dtype": {"type": "DT_FLOAT"}, "value": {"tensor": {"dtype": "DT_FLOAT", "tensorShape": {"dim": [{"size": "64"}]}}}}}, {"name": "12727", "op": "Const", "attr": {"value": {"tensor": {"dtype": "DT_FLOAT", "tensorShape": {"dim": [{"size": "1"}, {"size": "1"}, {"size": "64"}, {"size": "64"}]}}}, "dtype": {"type": "DT_FLOAT"}}}, {"name": "12737", "op": "Const", "attr": {"dtype": {"type": "DT_FLOAT"}, "value": {"tensor": {"dtype": "DT_FLOAT", "tensorShape": {"dim": [{"size": "64"}]}}}}}, {"name": "12677", "op": "Const", "attr": {"value": {"tensor": {"dtype": "DT_FLOAT", "tensorShape": {"dim": [{"size": "3"}, {"size": "3"}, {"size": "128"}, {"size": "128"}]}}}, "dtype": {"type": "DT_FLOAT"}}}, {"name": "12689", "op": "Const", "attr": {"dtype": {"type": "DT_FLOAT"}, "value": {"tensor": {"dtype": "DT_FLOAT", "tensorShape": {"dim": [{"size": "128"}]}}}}}, {"name": "12701", "op": "Const", "attr": {"dtype": {"type": "DT_FLOAT"}, "value": {"tensor": {"dtype": "DT_FLOAT", "tensorShape": {"dim": [{"size": "3"}, {"size": "3"}, {"size": "128"}, {"size": "128"}]}}}}}, {"name": "12713", "op": "Const", "attr": {"dtype": {"type": "DT_FLOAT"}, "value": {"tensor": {"dtype": "DT_FLOAT", "tensorShape": {"dim": [{"size": "128"}]}}}}}, {"name": "12725", "op": "Const", "attr": {"dtype": {"type": "DT_FLOAT"}, "value": {"tensor": {"dtype": "DT_FLOAT", "tensorShape": {"dim": [{"size": "1"}, {"size": "1"}, {"size": "128"}, {"size": "10"}]}}}}}, {"name": "12739", "op": "Const", "attr": {"dtype": {"type": "DT_FLOAT"}, "value": {"tensor": {"dtype": "DT_FLOAT", "tensorShape": {"dim": [{"size": "10"}]}}}}}, {"name": "PartitionedCall/model_13/tf.concat_10/concat/axis", "op": "Const", "attr": {"dtype": {"type": "DT_INT32"}, "value": {"tensor": {"dtype": "DT_INT32", "tensorShape": {}}}}}, {"name": "PartitionedCall/model_13/tf.compat.v1.transpose_2/transpose/perm", "op": "Const", "attr": {"value": {"tensor": {"dtype": "DT_INT32", "tensorShape": {"dim": [{"size": "4"}]}}}, "dtype": {"type": "DT_INT32"}}}, {"name": "PartitionedCall/model_13/tf.reshape_2/Reshape/shape", "op": "Const", "attr": {"dtype": {"type": "DT_INT32"}, "value": {"tensor": {"dtype": "DT_INT32", "tensorShape": {"dim": [{"size": "3"}]}}}}}, {"name": "12675", "op": "Const", "attr": {"dtype": {"type": "DT_FLOAT"}, "value": {"tensor": {"dtype": "DT_FLOAT", "tensorShape": {"dim": [{"size": "3"}, {"size": "3"}, {"size": "256"}, {"size": "64"}]}}}}}, {"name": "12687", "op": "Const", "attr": {"value": {"tensor": {"dtype": "DT_FLOAT", "tensorShape": {"dim": [{"size": "64"}]}}}, "dtype": {"type": "DT_FLOAT"}}}, {"name": "12699", "op": "Const", "attr": {"value": {"tensor": {"dtype": "DT_FLOAT", "tensorShape": {"dim": [{"size": "3"}, {"size": "3"}, {"size": "64"}, {"size": "64"}]}}}, "dtype": {"type": "DT_FLOAT"}}}, {"name": "12711", "op": "Const", "attr": {"dtype": {"type": "DT_FLOAT"}, "value": {"tensor": {"dtype": "DT_FLOAT", "tensorShape": {"dim": [{"size": "64"}]}}}}}, {"name": "12723", "op": "Const", "attr": {"dtype": {"type": "DT_FLOAT"}, "value": {"tensor": {"dtype": "DT_FLOAT", "tensorShape": {"dim": [{"size": "1"}, {"size": "1"}, {"size": "64"}, {"size": "64"}]}}}}}, {"name": "12733", "op": "Const", "attr": {"value": {"tensor": {"dtype": "DT_FLOAT", "tensorShape": {"dim": [{"size": "64"}]}}}, "dtype": {"type": "DT_FLOAT"}}}, {"name": "12673", "op": "Const", "attr": {"value": {"tensor": {"dtype": "DT_FLOAT", "tensorShape": {"dim": [{"size": "3"}, {"size": "3"}, {"size": "256"}, {"size": "128"}]}}}, "dtype": {"type": "DT_FLOAT"}}}, {"name": "12685", "op": "Const", "attr": {"dtype": {"type": "DT_FLOAT"}, "value": {"tensor": {"dtype": "DT_FLOAT", "tensorShape": {"dim": [{"size": "128"}]}}}}}, {"name": "12697", "op": "Const", "attr": {"dtype": {"type": "DT_FLOAT"}, "value": {"tensor": {"dtype": "DT_FLOAT", "tensorShape": {"dim": [{"size": "3"}, {"size": "3"}, {"size": "128"}, {"size": "128"}]}}}}}, {"name": "12709", "op": "Const", "attr": {"dtype": {"type": "DT_FLOAT"}, "value": {"tensor": {"dtype": "DT_FLOAT", "tensorShape": {"dim": [{"size": "128"}]}}}}}, {"name": "12721", "op": "Const", "attr": {"dtype": {"type": "DT_FLOAT"}, "value": {"tensor": {"dtype": "DT_FLOAT", "tensorShape": {"dim": [{"size": "1"}, {"size": "1"}, {"size": "128"}, {"size": "10"}]}}}}}, {"name": "12735", "op": "Const", "attr": {"dtype": {"type": "DT_FLOAT"}, "value": {"tensor": {"dtype": "DT_FLOAT", "tensorShape": {"dim": [{"size": "10"}]}}}}}, {"name": "PartitionedCall/model_13/tf.concat_13/concat/axis", "op": "Const", "attr": {"dtype": {"type": "DT_INT32"}, "value": {"tensor": {"dtype": "DT_INT32", "tensorShape": {}}}}}, {"name": "PartitionedCall/model_13/tf.compat.v1.transpose_7/transpose/perm", "op": "Const", "attr": {"dtype": {"type": "DT_INT32"}, "value": {"tensor": {"dtype": "DT_INT32", "tensorShape": {"dim": [{"size": "4"}]}}}}}, {"name": "PartitionedCall/model_13/tf.reshape_5/Reshape/shape", "op": "Const", "attr": {"value": {"tensor": {"dtype": "DT_INT32", "tensorShape": {"dim": [{"size": "3"}]}}}, "dtype": {"type": "DT_INT32"}}}, {"name": "12671", "op": "Const", "attr": {"value": {"tensor": {"dtype": "DT_FLOAT", "tensorShape": {"dim": [{"size": "3"}, {"size": "3"}, {"size": "512"}, {"size": "64"}]}}}, "dtype": {"type": "DT_FLOAT"}}}, {"name": "12683", "op": "Const", "attr": {"dtype": {"type": "DT_FLOAT"}, "value": {"tensor": {"dtype": "DT_FLOAT", "tensorShape": {"dim": [{"size": "64"}]}}}}}, {"name": "12695", "op": "Const", "attr": {"value": {"tensor": {"dtype": "DT_FLOAT", "tensorShape": {"dim": [{"size": "3"}, {"size": "3"}, {"size": "64"}, {"size": "64"}]}}}, "dtype": {"type": "DT_FLOAT"}}}, {"name": "12707", "op": "Const", "attr": {"dtype": {"type": "DT_FLOAT"}, "value": {"tensor": {"dtype": "DT_FLOAT", "tensorShape": {"dim": [{"size": "64"}]}}}}}, {"name": "12719", "op": "Const", "attr": {"dtype": {"type": "DT_FLOAT"}, "value": {"tensor": {"dtype": "DT_FLOAT", "tensorShape": {"dim": [{"size": "1"}, {"size": "1"}, {"size": "64"}, {"size": "64"}]}}}}}, {"name": "12729", "op": "Const", "attr": {"value": {"tensor": {"dtype": "DT_FLOAT", "tensorShape": {"dim": [{"size": "64"}]}}}, "dtype": {"type": "DT_FLOAT"}}}, {"name": "12661", "op": "Const", "attr": {"dtype": {"type": "DT_INT64"}, "value": {"tensor": {"dtype": "DT_INT64", "tensorShape": {"dim": [{"size": "4"}]}}}}}, {"name": "12663", "op": "Const", "attr": {"value": {"tensor": {"dtype": "DT_INT64", "tensorShape": {"dim": [{"size": "4"}]}}}, "dtype": {"type": "DT_INT64"}}}, {"name": "PartitionedCall/model_13/tf.strided_slice_14/ones_like", "op": "Const", "attr": {"dtype": {"type": "DT_INT64"}, "value": {"tensor": {"dtype": "DT_INT64", "tensorShape": {"dim": [{"size": "4"}]}}}}}, {"name": "12631", "op": "Const", "attr": {"value": {"tensor": {"dtype": "DT_INT64", "tensorShape": {"dim": [{"size": "4"}]}}}, "dtype": {"type": "DT_INT64"}}}, {"name": "12633", "op": "Const", "attr": {"dtype": {"type": "DT_INT64"}, "value": {"tensor": {"dtype": "DT_INT64", "tensorShape": {"dim": [{"size": "4"}]}}}}}, {"name": "PartitionedCall/model_13/tf.strided_slice_12/ones_like", "op": "Const", "attr": {"dtype": {"type": "DT_INT64"}, "value": {"tensor": {"dtype": "DT_INT64", "tensorShape": {"dim": [{"size": "4"}]}}}}}, {"name": "12601", "op": "Const", "attr": {"dtype": {"type": "DT_INT64"}, "value": {"tensor": {"dtype": "DT_INT64", "tensorShape": {"dim": [{"size": "4"}]}}}}}, {"name": "12603", "op": "Const", "attr": {"value": {"tensor": {"dtype": "DT_INT64", "tensorShape": {"dim": [{"size": "4"}]}}}, "dtype": {"type": "DT_INT64"}}}, {"name": "PartitionedCall/model_13/tf.strided_slice_10/ones_like", "op": "Const", "attr": {"dtype": {"type": "DT_INT64"}, "value": {"tensor": {"dtype": "DT_INT64", "tensorShape": {"dim": [{"size": "4"}]}}}}}, {"name": "PartitionedCall/model_13/tf.compat.v1.image.resize_nearest_neighbor_1/ResizeNearestNeighbor/size", "op": "Const", "attr": {"dtype": {"type": "DT_INT32"}, "value": {"tensor": {"dtype": "DT_INT32", "tensorShape": {"dim": [{"size": "2"}]}}}}}, {"name": "PartitionedCall/model_13/tf.concat_7/concat/axis", "op": "Const", "attr": {"value": {"tensor": {"dtype": "DT_INT32", "tensorShape": {}}}, "dtype": {"type": "DT_INT32"}}}, {"name": "12585", "op": "Const", "attr": {"dtype": {"type": "DT_FLOAT"}, "value": {"tensor": {"dtype": "DT_FLOAT", "tensorShape": {"dim": [{"size": "1"}, {"size": "1"}, {"size": "384"}, {"size": "128"}]}}}}}, {"name": "12587", "op": "Const", "attr": {"value": {"tensor": {"dtype": "DT_FLOAT", "tensorShape": {"dim": [{"size": "128"}]}}}, "dtype": {"type": "DT_FLOAT"}}}, {"name": "12589", "op": "Const", "attr": {"dtype": {"type": "DT_INT64"}, "value": {"tensor": {"dtype": "DT_INT64", "tensorShape": {"dim": [{"size": "4"}]}}}}}, {"name": "12591", "op": "Const", "attr": {"dtype": {"type": "DT_INT64"}, "value": {"tensor": {"dtype": "DT_INT64", "tensorShape": {"dim": [{"size": "4"}]}}}}}, {"name": "PartitionedCall/model_13/tf.strided_slice_11/ones_like", "op": "Const", "attr": {"dtype": {"type": "DT_INT64"}, "value": {"tensor": {"dtype": "DT_INT64", "tensorShape": {"dim": [{"size": "4"}]}}}}}, {"name": "12593", "op": "Const", "attr": {"dtype": {"type": "DT_FLOAT"}, "value": {"tensor": {"dtype": "DT_FLOAT", "tensorShape": {"dim": [{"size": "3"}, {"size": "3"}, {"size": "64"}, {"size": "64"}]}}}}}, {"name": "12595", "op": "Const", "attr": {"value": {"tensor": {"dtype": "DT_FLOAT", "tensorShape": {"dim": [{"size": "64"}]}}}, "dtype": {"type": "DT_FLOAT"}}}, {"name": "12597", "op": "Const", "attr": {"dtype": {"type": "DT_FLOAT"}, "value": {"tensor": {"dtype": "DT_FLOAT", "tensorShape": {"dim": [{"size": "3"}, {"size": "3"}, {"size": "64"}, {"size": "64"}]}}}}}, {"name": "12599", "op": "Const", "attr": {"value": {"tensor": {"dtype": "DT_FLOAT", "tensorShape": {"dim": [{"size": "64"}]}}}, "dtype": {"type": "DT_FLOAT"}}}, {"name": "PartitionedCall/model_13/tf.concat_8/concat/axis", "op": "Const", "attr": {"value": {"tensor": {"dtype": "DT_INT32", "tensorShape": {}}}, "dtype": {"type": "DT_INT32"}}}, {"name": "12605", "op": "Const", "attr": {"value": {"tensor": {"dtype": "DT_FLOAT", "tensorShape": {"dim": [{"size": "1"}, {"size": "1"}, {"size": "192"}, {"size": "128"}]}}}, "dtype": {"type": "DT_FLOAT"}}}, {"name": "12607", "op": "Const", "attr": {"value": {"tensor": {"dtype": "DT_FLOAT", "tensorShape": {"dim": [{"size": "128"}]}}}, "dtype": {"type": "DT_FLOAT"}}}, {"name": "12609", "op": "Const", "attr": {"dtype": {"type": "DT_INT32"}, "value": {"tensor": {"dtype": "DT_INT32", "tensorShape": {"dim": [{"size": "4"}, {"size": "2"}]}}}}}, {"name": "12611", "op": "Const", "attr": {"dtype": {"type": "DT_FLOAT"}, "value": {"tensor": {"dtype": "DT_FLOAT", "tensorShape": {"dim": [{"size": "3"}, {"size": "3"}, {"size": "128"}, {"size": "128"}]}}}}}, {"name": "12613", "op": "Const", "attr": {"dtype": {"type": "DT_FLOAT"}, "value": {"tensor": {"dtype": "DT_FLOAT", "tensorShape": {"dim": [{"size": "128"}]}}}}}, {"name": "12577", "op": "Const", "attr": {"value": {"tensor": {"dtype": "DT_INT64", "tensorShape": {"dim": [{"size": "4"}]}}}, "dtype": {"type": "DT_INT64"}}}, {"name": "12579", "op": "Const", "attr": {"value": {"tensor": {"dtype": "DT_INT64", "tensorShape": {"dim": [{"size": "4"}]}}}, "dtype": {"type": "DT_INT64"}}}, {"name": "PartitionedCall/model_13/tf.strided_slice_8/ones_like", "op": "Const", "attr": {"dtype": {"type": "DT_INT64"}, "value": {"tensor": {"dtype": "DT_INT64", "tensorShape": {"dim": [{"size": "4"}]}}}}}, {"name": "PartitionedCall/model_13/tf.compat.v1.image.resize_nearest_neighbor/ResizeNearestNeighbor/size", "op": "Const", "attr": {"dtype": {"type": "DT_INT32"}, "value": {"tensor": {"dtype": "DT_INT32", "tensorShape": {"dim": [{"size": "2"}]}}}}}, {"name": "PartitionedCall/model_13/tf.concat_5/concat/axis", "op": "Const", "attr": {"dtype": {"type": "DT_INT32"}, "value": {"tensor": {"dtype": "DT_INT32", "tensorShape": {}}}}}, {"name": "12561", "op": "Const", "attr": {"value": {"tensor": {"dtype": "DT_FLOAT", "tensorShape": {"dim": [{"size": "1"}, {"size": "1"}, {"size": "768"}, {"size": "256"}]}}}, "dtype": {"type": "DT_FLOAT"}}}, {"name": "12563", "op": "Const", "attr": {"value": {"tensor": {"dtype": "DT_FLOAT", "tensorShape": {"dim": [{"size": "256"}]}}}, "dtype": {"type": "DT_FLOAT"}}}, {"name": "12565", "op": "Const", "attr": {"value": {"tensor": {"dtype": "DT_INT64", "tensorShape": {"dim": [{"size": "4"}]}}}, "dtype": {"type": "DT_INT64"}}}, {"name": "12567", "op": "Const", "attr": {"value": {"tensor": {"dtype": "DT_INT64", "tensorShape": {"dim": [{"size": "4"}]}}}, "dtype": {"type": "DT_INT64"}}}, {"name": "PartitionedCall/model_13/tf.strided_slice_9/ones_like", "op": "Const", "attr": {"value": {"tensor": {"dtype": "DT_INT64", "tensorShape": {"dim": [{"size": "4"}]}}}, "dtype": {"type": "DT_INT64"}}}, {"name": "12569", "op": "Const", "attr": {"dtype": {"type": "DT_FLOAT"}, "value": {"tensor": {"dtype": "DT_FLOAT", "tensorShape": {"dim": [{"size": "3"}, {"size": "3"}, {"size": "128"}, {"size": "128"}]}}}}}, {"name": "12571", "op": "Const", "attr": {"dtype": {"type": "DT_FLOAT"}, "value": {"tensor": {"dtype": "DT_FLOAT", "tensorShape": {"dim": [{"size": "128"}]}}}}}, {"name": "12573", "op": "Const", "attr": {"dtype": {"type": "DT_FLOAT"}, "value": {"tensor": {"dtype": "DT_FLOAT", "tensorShape": {"dim": [{"size": "3"}, {"size": "3"}, {"size": "128"}, {"size": "128"}]}}}}}, {"name": "12575", "op": "Const", "attr": {"dtype": {"type": "DT_FLOAT"}, "value": {"tensor": {"dtype": "DT_FLOAT", "tensorShape": {"dim": [{"size": "128"}]}}}}}, {"name": "PartitionedCall/model_13/tf.concat_6/concat/axis", "op": "Const", "attr": {"dtype": {"type": "DT_INT32"}, "value": {"tensor": {"dtype": "DT_INT32", "tensorShape": {}}}}}, {"name": "12581", "op": "Const", "attr": {"dtype": {"type": "DT_FLOAT"}, "value": {"tensor": {"dtype": "DT_FLOAT", "tensorShape": {"dim": [{"size": "1"}, {"size": "1"}, {"size": "384"}, {"size": "256"}]}}}}}, {"name": "12583", "op": "Const", "attr": {"value": {"tensor": {"dtype": "DT_FLOAT", "tensorShape": {"dim": [{"size": "256"}]}}}, "dtype": {"type": "DT_FLOAT"}}}, {"name": "PartitionedCall/model_13/tf.concat_9/concat/axis", "op": "Const", "attr": {"value": {"tensor": {"dtype": "DT_INT32", "tensorShape": {}}}, "dtype": {"type": "DT_INT32"}}}, {"name": "12615", "op": "Const", "attr": {"value": {"tensor": {"dtype": "DT_FLOAT", "tensorShape": {"dim": [{"size": "1"}, {"size": "1"}, {"size": "384"}, {"size": "256"}]}}}, "dtype": {"type": "DT_FLOAT"}}}, {"name": "12617", "op": "Const", "attr": {"value": {"tensor": {"dtype": "DT_FLOAT", "tensorShape": {"dim": [{"size": "256"}]}}}, "dtype": {"type": "DT_FLOAT"}}}, {"name": "12619", "op": "Const", "attr": {"value": {"tensor": {"dtype": "DT_INT64", "tensorShape": {"dim": [{"size": "4"}]}}}, "dtype": {"type": "DT_INT64"}}}, {"name": "12621", "op": "Const", "attr": {"dtype": {"type": "DT_INT64"}, "value": {"tensor": {"dtype": "DT_INT64", "tensorShape": {"dim": [{"size": "4"}]}}}}}, {"name": "PartitionedCall/model_13/tf.strided_slice_13/ones_like", "op": "Const", "attr": {"value": {"tensor": {"dtype": "DT_INT64", "tensorShape": {"dim": [{"size": "4"}]}}}, "dtype": {"type": "DT_INT64"}}}, {"name": "12623", "op": "Const", "attr": {"value": {"tensor": {"dtype": "DT_FLOAT", "tensorShape": {"dim": [{"size": "3"}, {"size": "3"}, {"size": "128"}, {"size": "128"}]}}}, "dtype": {"type": "DT_FLOAT"}}}, {"name": "12625", "op": "Const", "attr": {"value": {"tensor": {"dtype": "DT_FLOAT", "tensorShape": {"dim": [{"size": "128"}]}}}, "dtype": {"type": "DT_FLOAT"}}}, {"name": "12627", "op": "Const", "attr": {"dtype": {"type": "DT_FLOAT"}, "value": {"tensor": {"dtype": "DT_FLOAT", "tensorShape": {"dim": [{"size": "3"}, {"size": "3"}, {"size": "128"}, {"size": "128"}]}}}}}, {"name": "12629", "op": "Const", "attr": {"value": {"tensor": {"dtype": "DT_FLOAT", "tensorShape": {"dim": [{"size": "128"}]}}}, "dtype": {"type": "DT_FLOAT"}}}, {"name": "PartitionedCall/model_13/tf.concat_11/concat/axis", "op": "Const", "attr": {"value": {"tensor": {"dtype": "DT_INT32", "tensorShape": {}}}, "dtype": {"type": "DT_INT32"}}}, {"name": "12635", "op": "Const", "attr": {"value": {"tensor": {"dtype": "DT_FLOAT", "tensorShape": {"dim": [{"size": "1"}, {"size": "1"}, {"size": "384"}, {"size": "256"}]}}}, "dtype": {"type": "DT_FLOAT"}}}, {"name": "12637", "op": "Const", "attr": {"dtype": {"type": "DT_FLOAT"}, "value": {"tensor": {"dtype": "DT_FLOAT", "tensorShape": {"dim": [{"size": "256"}]}}}}}, {"name": "12639", "op": "Const", "attr": {"dtype": {"type": "DT_INT32"}, "value": {"tensor": {"dtype": "DT_INT32", "tensorShape": {"dim": [{"size": "4"}, {"size": "2"}]}}}}}, {"name": "12641", "op": "Const", "attr": {"value": {"tensor": {"dtype": "DT_FLOAT", "tensorShape": {"dim": [{"size": "3"}, {"size": "3"}, {"size": "256"}, {"size": "256"}]}}}, "dtype": {"type": "DT_FLOAT"}}}, {"name": "12643", "op": "Const", "attr": {"dtype": {"type": "DT_FLOAT"}, "value": {"tensor": {"dtype": "DT_FLOAT", "tensorShape": {"dim": [{"size": "256"}]}}}}}, {"name": "12545", "op": "Const", "attr": {"value": {"tensor": {"dtype": "DT_INT64", "tensorShape": {"dim": [{"size": "4"}]}}}, "dtype": {"type": "DT_INT64"}}}, {"name": "12547", "op": "Const", "attr": {"dtype": {"type": "DT_INT64"}, "value": {"tensor": {"dtype": "DT_INT64", "tensorShape": {"dim": [{"size": "4"}]}}}}}, {"name": "PartitionedCall/model_13/tf.strided_slice_6/ones_like", "op": "Const", "attr": {"value": {"tensor": {"dtype": "DT_INT64", "tensorShape": {"dim": [{"size": "4"}]}}}, "dtype": {"type": "DT_INT64"}}}, {"name": "12515", "op": "Const", "attr": {"dtype": {"type": "DT_INT64"}, "value": {"tensor": {"dtype": "DT_INT64", "tensorShape": {"dim": [{"size": "4"}]}}}}}, {"name": "12517", "op": "Const", "attr": {"dtype": {"type": "DT_INT64"}, "value": {"tensor": {"dtype": "DT_INT64", "tensorShape": {"dim": [{"size": "4"}]}}}}}, {"name": "PartitionedCall/model_13/tf.strided_slice_4/ones_like", "op": "Const", "attr": {"value": {"tensor": {"dtype": "DT_INT64", "tensorShape": {"dim": [{"size": "4"}]}}}, "dtype": {"type": "DT_INT64"}}}, {"name": "12477", "op": "Const", "attr": {"value": {"tensor": {"dtype": "DT_INT64", "tensorShape": {"dim": [{"size": "4"}]}}}, "dtype": {"type": "DT_INT64"}}}, {"name": "12479", "op": "Const", "attr": {"value": {"tensor": {"dtype": "DT_INT64", "tensorShape": {"dim": [{"size": "4"}]}}}, "dtype": {"type": "DT_INT64"}}}, {"name": "PartitionedCall/model_13/tf.strided_slice_2/ones_like", "op": "Const", "attr": {"dtype": {"type": "DT_INT64"}, "value": {"tensor": {"dtype": "DT_INT64", "tensorShape": {"dim": [{"size": "4"}]}}}}}, {"name": "12439", "op": "Const", "attr": {"value": {"tensor": {"dtype": "DT_INT64", "tensorShape": {"dim": [{"size": "4"}]}}}, "dtype": {"type": "DT_INT64"}}}, {"name": "12441", "op": "Const", "attr": {"value": {"tensor": {"dtype": "DT_INT64", "tensorShape": {"dim": [{"size": "4"}]}}}, "dtype": {"type": "DT_INT64"}}}, {"name": "PartitionedCall/model_13/tf.strided_slice/ones_like", "op": "Const", "attr": {"value": {"tensor": {"dtype": "DT_INT64", "tensorShape": {"dim": [{"size": "4"}]}}}, "dtype": {"type": "DT_INT64"}}}, {"name": "12411", "op": "Const", "attr": {"dtype": {"type": "DT_INT32"}, "value": {"tensor": {"dtype": "DT_INT32", "tensorShape": {"dim": [{"size": "4"}, {"size": "2"}]}}}}}, {"name": "12413", "op": "Const", "attr": {"value": {"tensor": {"dtype": "DT_FLOAT", "tensorShape": {"dim": [{"size": "3"}, {"size": "3"}, {"size": "3"}, {"size": "32"}]}}}, "dtype": {"type": "DT_FLOAT"}}}, {"name": "12415", "op": "Const", "attr": {"value": {"tensor": {"dtype": "DT_FLOAT", "tensorShape": {"dim": [{"size": "32"}]}}}, "dtype": {"type": "DT_FLOAT"}}}, {"name": "12417", "op": "Const", "attr": {"dtype": {"type": "DT_INT32"}, "value": {"tensor": {"dtype": "DT_INT32", "tensorShape": {"dim": [{"size": "4"}, {"size": "2"}]}}}}}, {"name": "12419", "op": "Const", "attr": {"dtype": {"type": "DT_FLOAT"}, "value": {"tensor": {"dtype": "DT_FLOAT", "tensorShape": {"dim": [{"size": "3"}, {"size": "3"}, {"size": "32"}, {"size": "64"}]}}}}}, {"name": "12421", "op": "Const", "attr": {"value": {"tensor": {"dtype": "DT_FLOAT", "tensorShape": {"dim": [{"size": "64"}]}}}, "dtype": {"type": "DT_FLOAT"}}}, {"name": "12423", "op": "Const", "attr": {"value": {"tensor": {"dtype": "DT_FLOAT", "tensorShape": {"dim": [{"size": "1"}, {"size": "1"}, {"size": "64"}, {"size": "64"}]}}}, "dtype": {"type": "DT_FLOAT"}}}, {"name": "12425", "op": "Const", "attr": {"dtype": {"type": "DT_FLOAT"}, "value": {"tensor": {"dtype": "DT_FLOAT", "tensorShape": {"dim": [{"size": "64"}]}}}}}, {"name": "12427", "op": "Const", "attr": {"value": {"tensor": {"dtype": "DT_INT64", "tensorShape": {"dim": [{"size": "4"}]}}}, "dtype": {"type": "DT_INT64"}}}, {"name": "12429", "op": "Const", "attr": {"dtype": {"type": "DT_INT64"}, "value": {"tensor": {"dtype": "DT_INT64", "tensorShape": {"dim": [{"size": "4"}]}}}}}, {"name": "PartitionedCall/model_13/tf.strided_slice_1/ones_like", "op": "Const", "attr": {"dtype": {"type": "DT_INT64"}, "value": {"tensor": {"dtype": "DT_INT64", "tensorShape": {"dim": [{"size": "4"}]}}}}}, {"name": "12431", "op": "Const", "attr": {"value": {"tensor": {"dtype": "DT_FLOAT", "tensorShape": {"dim": [{"size": "3"}, {"size": "3"}, {"size": "32"}, {"size": "32"}]}}}, "dtype": {"type": "DT_FLOAT"}}}, {"name": "12433", "op": "Const", "attr": {"dtype": {"type": "DT_FLOAT"}, "value": {"tensor": {"dtype": "DT_FLOAT", "tensorShape": {"dim": [{"size": "32"}]}}}}}, {"name": "12435", "op": "Const", "attr": {"dtype": {"type": "DT_FLOAT"}, "value": {"tensor": {"dtype": "DT_FLOAT", "tensorShape": {"dim": [{"size": "3"}, {"size": "3"}, {"size": "32"}, {"size": "32"}]}}}}}, {"name": "12437", "op": "Const", "attr": {"dtype": {"type": "DT_FLOAT"}, "value": {"tensor": {"dtype": "DT_FLOAT", "tensorShape": {"dim": [{"size": "32"}]}}}}}, {"name": "PartitionedCall/model_13/tf.concat/concat/axis", "op": "Const", "attr": {"dtype": {"type": "DT_INT32"}, "value": {"tensor": {"dtype": "DT_INT32", "tensorShape": {}}}}}, {"name": "12443", "op": "Const", "attr": {"dtype": {"type": "DT_FLOAT"}, "value": {"tensor": {"dtype": "DT_FLOAT", "tensorShape": {"dim": [{"size": "1"}, {"size": "1"}, {"size": "96"}, {"size": "64"}]}}}}}, {"name": "12445", "op": "Const", "attr": {"value": {"tensor": {"dtype": "DT_FLOAT", "tensorShape": {"dim": [{"size": "64"}]}}}, "dtype": {"type": "DT_FLOAT"}}}, {"name": "12447", "op": "Const", "attr": {"dtype": {"type": "DT_INT32"}, "value": {"tensor": {"dtype": "DT_INT32", "tensorShape": {"dim": [{"size": "4"}, {"size": "2"}]}}}}}, {"name": "12449", "op": "Const", "attr": {"dtype": {"type": "DT_FLOAT"}, "value": {"tensor": {"dtype": "DT_FLOAT", "tensorShape": {"dim": [{"size": "3"}, {"size": "3"}, {"size": "64"}, {"size": "128"}]}}}}}, {"name": "12451", "op": "Const", "attr": {"value": {"tensor": {"dtype": "DT_FLOAT", "tensorShape": {"dim": [{"size": "128"}]}}}, "dtype": {"type": "DT_FLOAT"}}}, {"name": "12453", "op": "Const", "attr": {"value": {"tensor": {"dtype": "DT_FLOAT", "tensorShape": {"dim": [{"size": "1"}, {"size": "1"}, {"size": "128"}, {"size": "128"}]}}}, "dtype": {"type": "DT_FLOAT"}}}, {"name": "12455", "op": "Const", "attr": {"dtype": {"type": "DT_FLOAT"}, "value": {"tensor": {"dtype": "DT_FLOAT", "tensorShape": {"dim": [{"size": "128"}]}}}}}, {"name": "12457", "op": "Const", "attr": {"dtype": {"type": "DT_INT64"}, "value": {"tensor": {"dtype": "DT_INT64", "tensorShape": {"dim": [{"size": "4"}]}}}}}, {"name": "12459", "op": "Const", "attr": {"value": {"tensor": {"dtype": "DT_INT64", "tensorShape": {"dim": [{"size": "4"}]}}}, "dtype": {"type": "DT_INT64"}}}, {"name": "PartitionedCall/model_13/tf.strided_slice_3/ones_like", "op": "Const", "attr": {"dtype": {"type": "DT_INT64"}, "value": {"tensor": {"dtype": "DT_INT64", "tensorShape": {"dim": [{"size": "4"}]}}}}}, {"name": "12461", "op": "Const", "attr": {"value": {"tensor": {"dtype": "DT_FLOAT", "tensorShape": {"dim": [{"size": "3"}, {"size": "3"}, {"size": "64"}, {"size": "64"}]}}}, "dtype": {"type": "DT_FLOAT"}}}, {"name": "12463", "op": "Const", "attr": {"dtype": {"type": "DT_FLOAT"}, "value": {"tensor": {"dtype": "DT_FLOAT", "tensorShape": {"dim": [{"size": "64"}]}}}}}, {"name": "12465", "op": "Const", "attr": {"value": {"tensor": {"dtype": "DT_FLOAT", "tensorShape": {"dim": [{"size": "3"}, {"size": "3"}, {"size": "64"}, {"size": "64"}]}}}, "dtype": {"type": "DT_FLOAT"}}}, {"name": "12467", "op": "Const", "attr": {"value": {"tensor": {"dtype": "DT_FLOAT", "tensorShape": {"dim": [{"size": "64"}]}}}, "dtype": {"type": "DT_FLOAT"}}}, {"name": "12469", "op": "Const", "attr": {"value": {"tensor": {"dtype": "DT_FLOAT", "tensorShape": {"dim": [{"size": "3"}, {"size": "3"}, {"size": "64"}, {"size": "64"}]}}}, "dtype": {"type": "DT_FLOAT"}}}, {"name": "12471", "op": "Const", "attr": {"dtype": {"type": "DT_FLOAT"}, "value": {"tensor": {"dtype": "DT_FLOAT", "tensorShape": {"dim": [{"size": "64"}]}}}}}, {"name": "12473", "op": "Const", "attr": {"dtype": {"type": "DT_FLOAT"}, "value": {"tensor": {"dtype": "DT_FLOAT", "tensorShape": {"dim": [{"size": "3"}, {"size": "3"}, {"size": "64"}, {"size": "64"}]}}}}}, {"name": "12475", "op": "Const", "attr": {"dtype": {"type": "DT_FLOAT"}, "value": {"tensor": {"dtype": "DT_FLOAT", "tensorShape": {"dim": [{"size": "64"}]}}}}}, {"name": "PartitionedCall/model_13/tf.concat_1/concat/axis", "op": "Const", "attr": {"value": {"tensor": {"dtype": "DT_INT32", "tensorShape": {}}}, "dtype": {"type": "DT_INT32"}}}, {"name": "12481", "op": "Const", "attr": {"value": {"tensor": {"dtype": "DT_FLOAT", "tensorShape": {"dim": [{"size": "1"}, {"size": "1"}, {"size": "256"}, {"size": "128"}]}}}, "dtype": {"type": "DT_FLOAT"}}}, {"name": "12483", "op": "Const", "attr": {"value": {"tensor": {"dtype": "DT_FLOAT", "tensorShape": {"dim": [{"size": "128"}]}}}, "dtype": {"type": "DT_FLOAT"}}}, {"name": "12485", "op": "Const", "attr": {"value": {"tensor": {"dtype": "DT_INT32", "tensorShape": {"dim": [{"size": "4"}, {"size": "2"}]}}}, "dtype": {"type": "DT_INT32"}}}, {"name": "12487", "op": "Const", "attr": {"value": {"tensor": {"dtype": "DT_FLOAT", "tensorShape": {"dim": [{"size": "3"}, {"size": "3"}, {"size": "128"}, {"size": "256"}]}}}, "dtype": {"type": "DT_FLOAT"}}}, {"name": "12489", "op": "Const", "attr": {"dtype": {"type": "DT_FLOAT"}, "value": {"tensor": {"dtype": "DT_FLOAT", "tensorShape": {"dim": [{"size": "256"}]}}}}}, {"name": "12491", "op": "Const", "attr": {"value": {"tensor": {"dtype": "DT_FLOAT", "tensorShape": {"dim": [{"size": "1"}, {"size": "1"}, {"size": "256"}, {"size": "256"}]}}}, "dtype": {"type": "DT_FLOAT"}}}, {"name": "12493", "op": "Const", "attr": {"dtype": {"type": "DT_FLOAT"}, "value": {"tensor": {"dtype": "DT_FLOAT", "tensorShape": {"dim": [{"size": "256"}]}}}}}, {"name": "12495", "op": "Const", "attr": {"value": {"tensor": {"dtype": "DT_INT64", "tensorShape": {"dim": [{"size": "4"}]}}}, "dtype": {"type": "DT_INT64"}}}, {"name": "12497", "op": "Const", "attr": {"value": {"tensor": {"dtype": "DT_INT64", "tensorShape": {"dim": [{"size": "4"}]}}}, "dtype": {"type": "DT_INT64"}}}, {"name": "PartitionedCall/model_13/tf.strided_slice_5/ones_like", "op": "Const", "attr": {"dtype": {"type": "DT_INT64"}, "value": {"tensor": {"dtype": "DT_INT64", "tensorShape": {"dim": [{"size": "4"}]}}}}}, {"name": "12499", "op": "Const", "attr": {"dtype": {"type": "DT_FLOAT"}, "value": {"tensor": {"dtype": "DT_FLOAT", "tensorShape": {"dim": [{"size": "3"}, {"size": "3"}, {"size": "128"}, {"size": "128"}]}}}}}, {"name": "12501", "op": "Const", "attr": {"dtype": {"type": "DT_FLOAT"}, "value": {"tensor": {"dtype": "DT_FLOAT", "tensorShape": {"dim": [{"size": "128"}]}}}}}, {"name": "12503", "op": "Const", "attr": {"value": {"tensor": {"dtype": "DT_FLOAT", "tensorShape": {"dim": [{"size": "3"}, {"size": "3"}, {"size": "128"}, {"size": "128"}]}}}, "dtype": {"type": "DT_FLOAT"}}}, {"name": "12505", "op": "Const", "attr": {"dtype": {"type": "DT_FLOAT"}, "value": {"tensor": {"dtype": "DT_FLOAT", "tensorShape": {"dim": [{"size": "128"}]}}}}}, {"name": "12507", "op": "Const", "attr": {"dtype": {"type": "DT_FLOAT"}, "value": {"tensor": {"dtype": "DT_FLOAT", "tensorShape": {"dim": [{"size": "3"}, {"size": "3"}, {"size": "128"}, {"size": "128"}]}}}}}, {"name": "12509", "op": "Const", "attr": {"value": {"tensor": {"dtype": "DT_FLOAT", "tensorShape": {"dim": [{"size": "128"}]}}}, "dtype": {"type": "DT_FLOAT"}}}, {"name": "12511", "op": "Const", "attr": {"dtype": {"type": "DT_FLOAT"}, "value": {"tensor": {"dtype": "DT_FLOAT", "tensorShape": {"dim": [{"size": "3"}, {"size": "3"}, {"size": "128"}, {"size": "128"}]}}}}}, {"name": "12513", "op": "Const", "attr": {"value": {"tensor": {"dtype": "DT_FLOAT", "tensorShape": {"dim": [{"size": "128"}]}}}, "dtype": {"type": "DT_FLOAT"}}}, {"name": "PartitionedCall/model_13/tf.concat_2/concat/axis", "op": "Const", "attr": {"dtype": {"type": "DT_INT32"}, "value": {"tensor": {"dtype": "DT_INT32", "tensorShape": {}}}}}, {"name": "12519", "op": "Const", "attr": {"value": {"tensor": {"dtype": "DT_FLOAT", "tensorShape": {"dim": [{"size": "1"}, {"size": "1"}, {"size": "512"}, {"size": "256"}]}}}, "dtype": {"type": "DT_FLOAT"}}}, {"name": "12521", "op": "Const", "attr": {"dtype": {"type": "DT_FLOAT"}, "value": {"tensor": {"dtype": "DT_FLOAT", "tensorShape": {"dim": [{"size": "256"}]}}}}}, {"name": "12523", "op": "Const", "attr": {"dtype": {"type": "DT_INT32"}, "value": {"tensor": {"dtype": "DT_INT32", "tensorShape": {"dim": [{"size": "4"}, {"size": "2"}]}}}}}, {"name": "12525", "op": "Const", "attr": {"dtype": {"type": "DT_FLOAT"}, "value": {"tensor": {"dtype": "DT_FLOAT", "tensorShape": {"dim": [{"size": "3"}, {"size": "3"}, {"size": "256"}, {"size": "512"}]}}}}}, {"name": "12527", "op": "Const", "attr": {"value": {"tensor": {"dtype": "DT_FLOAT", "tensorShape": {"dim": [{"size": "512"}]}}}, "dtype": {"type": "DT_FLOAT"}}}, {"name": "12529", "op": "Const", "attr": {"value": {"tensor": {"dtype": "DT_FLOAT", "tensorShape": {"dim": [{"size": "1"}, {"size": "1"}, {"size": "512"}, {"size": "512"}]}}}, "dtype": {"type": "DT_FLOAT"}}}, {"name": "12531", "op": "Const", "attr": {"dtype": {"type": "DT_FLOAT"}, "value": {"tensor": {"dtype": "DT_FLOAT", "tensorShape": {"dim": [{"size": "512"}]}}}}}, {"name": "12533", "op": "Const", "attr": {"value": {"tensor": {"dtype": "DT_INT64", "tensorShape": {"dim": [{"size": "4"}]}}}, "dtype": {"type": "DT_INT64"}}}, {"name": "12535", "op": "Const", "attr": {"value": {"tensor": {"dtype": "DT_INT64", "tensorShape": {"dim": [{"size": "4"}]}}}, "dtype": {"type": "DT_INT64"}}}, {"name": "PartitionedCall/model_13/tf.strided_slice_7/ones_like", "op": "Const", "attr": {"value": {"tensor": {"dtype": "DT_INT64", "tensorShape": {"dim": [{"size": "4"}]}}}, "dtype": {"type": "DT_INT64"}}}, {"name": "12537", "op": "Const", "attr": {"value": {"tensor": {"dtype": "DT_FLOAT", "tensorShape": {"dim": [{"size": "3"}, {"size": "3"}, {"size": "256"}, {"size": "256"}]}}}, "dtype": {"type": "DT_FLOAT"}}}, {"name": "12539", "op": "Const", "attr": {"value": {"tensor": {"dtype": "DT_FLOAT", "tensorShape": {"dim": [{"size": "256"}]}}}, "dtype": {"type": "DT_FLOAT"}}}, {"name": "12541", "op": "Const", "attr": {"dtype": {"type": "DT_FLOAT"}, "value": {"tensor": {"dtype": "DT_FLOAT", "tensorShape": {"dim": [{"size": "3"}, {"size": "3"}, {"size": "256"}, {"size": "256"}]}}}}}, {"name": "12543", "op": "Const", "attr": {"dtype": {"type": "DT_FLOAT"}, "value": {"tensor": {"dtype": "DT_FLOAT", "tensorShape": {"dim": [{"size": "256"}]}}}}}, {"name": "PartitionedCall/model_13/tf.concat_3/concat/axis", "op": "Const", "attr": {"dtype": {"type": "DT_INT32"}, "value": {"tensor": {"dtype": "DT_INT32", "tensorShape": {}}}}}, {"name": "12549", "op": "Const", "attr": {"dtype": {"type": "DT_FLOAT"}, "value": {"tensor": {"dtype": "DT_FLOAT", "tensorShape": {"dim": [{"size": "1"}, {"size": "1"}, {"size": "768"}, {"size": "512"}]}}}}}, {"name": "12551", "op": "Const", "attr": {"value": {"tensor": {"dtype": "DT_FLOAT", "tensorShape": {"dim": [{"size": "512"}]}}}, "dtype": {"type": "DT_FLOAT"}}}, {"name": "12553", "op": "Const", "attr": {"value": {"tensor": {"dtype": "DT_FLOAT", "tensorShape": {"dim": [{"size": "1"}, {"size": "1"}, {"size": "512"}, {"size": "256"}]}}}, "dtype": {"type": "DT_FLOAT"}}}, {"name": "12555", "op": "Const", "attr": {"dtype": {"type": "DT_FLOAT"}, "value": {"tensor": {"dtype": "DT_FLOAT", "tensorShape": {"dim": [{"size": "256"}]}}}}}, {"name": "PartitionedCall/model_13/tf.concat_4/concat/axis", "op": "Const", "attr": {"dtype": {"type": "DT_INT32"}, "value": {"tensor": {"dtype": "DT_INT32", "tensorShape": {}}}}}, {"name": "12557", "op": "Const", "attr": {"dtype": {"type": "DT_FLOAT"}, "value": {"tensor": {"dtype": "DT_FLOAT", "tensorShape": {"dim": [{"size": "1"}, {"size": "1"}, {"size": "1024"}, {"size": "512"}]}}}}}, {"name": "12559", "op": "Const", "attr": {"value": {"tensor": {"dtype": "DT_FLOAT", "tensorShape": {"dim": [{"size": "512"}]}}}, "dtype": {"type": "DT_FLOAT"}}}, {"name": "PartitionedCall/model_13/tf.concat_12/concat/axis", "op": "Const", "attr": {"dtype": {"type": "DT_INT32"}, "value": {"tensor": {"dtype": "DT_INT32", "tensorShape": {}}}}}, {"name": "12645", "op": "Const", "attr": {"value": {"tensor": {"dtype": "DT_FLOAT", "tensorShape": {"dim": [{"size": "1"}, {"size": "1"}, {"size": "768"}, {"size": "512"}]}}}, "dtype": {"type": "DT_FLOAT"}}}, {"name": "12647", "op": "Const", "attr": {"dtype": {"type": "DT_FLOAT"}, "value": {"tensor": {"dtype": "DT_FLOAT", "tensorShape": {"dim": [{"size": "512"}]}}}}}, {"name": "12649", "op": "Const", "attr": {"dtype": {"type": "DT_INT64"}, "value": {"tensor": {"dtype": "DT_INT64", "tensorShape": {"dim": [{"size": "4"}]}}}}}, {"name": "12651", "op": "Const", "attr": {"dtype": {"type": "DT_INT64"}, "value": {"tensor": {"dtype": "DT_INT64", "tensorShape": {"dim": [{"size": "4"}]}}}}}, {"name": "PartitionedCall/model_13/tf.strided_slice_15/ones_like", "op": "Const", "attr": {"dtype": {"type": "DT_INT64"}, "value": {"tensor": {"dtype": "DT_INT64", "tensorShape": {"dim": [{"size": "4"}]}}}}}, {"name": "12653", "op": "Const", "attr": {"value": {"tensor": {"dtype": "DT_FLOAT", "tensorShape": {"dim": [{"size": "3"}, {"size": "3"}, {"size": "256"}, {"size": "256"}]}}}, "dtype": {"type": "DT_FLOAT"}}}, {"name": "12655", "op": "Const", "attr": {"value": {"tensor": {"dtype": "DT_FLOAT", "tensorShape": {"dim": [{"size": "256"}]}}}, "dtype": {"type": "DT_FLOAT"}}}, {"name": "12657", "op": "Const", "attr": {"value": {"tensor": {"dtype": "DT_FLOAT", "tensorShape": {"dim": [{"size": "3"}, {"size": "3"}, {"size": "256"}, {"size": "256"}]}}}, "dtype": {"type": "DT_FLOAT"}}}, {"name": "12659", "op": "Const", "attr": {"value": {"tensor": {"dtype": "DT_FLOAT", "tensorShape": {"dim": [{"size": "256"}]}}}, "dtype": {"type": "DT_FLOAT"}}}, {"name": "PartitionedCall/model_13/tf.concat_14/concat/axis", "op": "Const", "attr": {"value": {"tensor": {"dtype": "DT_INT32", "tensorShape": {}}}, "dtype": {"type": "DT_INT32"}}}, {"name": "12665", "op": "Const", "attr": {"dtype": {"type": "DT_FLOAT"}, "value": {"tensor": {"dtype": "DT_FLOAT", "tensorShape": {"dim": [{"size": "1"}, {"size": "1"}, {"size": "768"}, {"size": "512"}]}}}}}, {"name": "12667", "op": "Const", "attr": {"dtype": {"type": "DT_FLOAT"}, "value": {"tensor": {"dtype": "DT_FLOAT", "tensorShape": {"dim": [{"size": "512"}]}}}}}, {"name": "12669", "op": "Const", "attr": {"value": {"tensor": {"dtype": "DT_FLOAT", "tensorShape": {"dim": [{"size": "3"}, {"size": "3"}, {"size": "512"}, {"size": "128"}]}}}, "dtype": {"type": "DT_FLOAT"}}}, {"name": "12681", "op": "Const", "attr": {"dtype": {"type": "DT_FLOAT"}, "value": {"tensor": {"dtype": "DT_FLOAT", "tensorShape": {"dim": [{"size": "128"}]}}}}}, {"name": "12693", "op": "Const", "attr": {"value": {"tensor": {"dtype": "DT_FLOAT", "tensorShape": {"dim": [{"size": "3"}, {"size": "3"}, {"size": "128"}, {"size": "128"}]}}}, "dtype": {"type": "DT_FLOAT"}}}, {"name": "12705", "op": "Const", "attr": {"value": {"tensor": {"dtype": "DT_FLOAT", "tensorShape": {"dim": [{"size": "128"}]}}}, "dtype": {"type": "DT_FLOAT"}}}, {"name": "12717", "op": "Const", "attr": {"value": {"tensor": {"dtype": "DT_FLOAT", "tensorShape": {"dim": [{"size": "1"}, {"size": "1"}, {"size": "128"}, {"size": "10"}]}}}, "dtype": {"type": "DT_FLOAT"}}}, {"name": "12731", "op": "Const", "attr": {"dtype": {"type": "DT_FLOAT"}, "value": {"tensor": {"dtype": "DT_FLOAT", "tensorShape": {"dim": [{"size": "10"}]}}}}}, {"name": "PartitionedCall/model_13/tf.concat_15/concat/axis", "op": "Const", "attr": {"dtype": {"type": "DT_INT32"}, "value": {"tensor": {"dtype": "DT_INT32", "tensorShape": {}}}}}, {"name": "PartitionedCall/model_13/tf.compat.v1.transpose_12/transpose/perm", "op": "Const", "attr": {"value": {"tensor": {"dtype": "DT_INT32", "tensorShape": {"dim": [{"size": "4"}]}}}, "dtype": {"type": "DT_INT32"}}}, {"name": "PartitionedCall/model_13/tf.reshape_8/Reshape/shape", "op": "Const", "attr": {"dtype": {"type": "DT_INT32"}, "value": {"tensor": {"dtype": "DT_INT32", "tensorShape": {"dim": [{"size": "3"}]}}}}}, {"name": "PartitionedCall/model_13/tf.concat_16/concat/axis", "op": "Const", "attr": {"dtype": {"type": "DT_INT32"}, "value": {"tensor": {"dtype": "DT_INT32", "tensorShape": {}}}}}, {"name": "12761", "op": "Const", "attr": {"dtype": {"type": "DT_INT64"}, "value": {"tensor": {"dtype": "DT_INT64", "tensorShape": {"dim": [{"size": "3"}]}}}}}, {"name": "12763", "op": "Const", "attr": {"value": {"tensor": {"dtype": "DT_INT64", "tensorShape": {"dim": [{"size": "3"}]}}}, "dtype": {"type": "DT_INT64"}}}, {"name": "PartitionedCall/model_13/tf.strided_slice_17/StridedSlice/strides", "op": "Const", "attr": {"dtype": {"type": "DT_INT64"}, "value": {"tensor": {"dtype": "DT_INT64", "tensorShape": {"dim": [{"size": "3"}]}}}}}, {"name": "PartitionedCall/model_13/output0/concat/axis", "op": "Const", "attr": {"value": {"tensor": {"dtype": "DT_INT32", "tensorShape": {}}}, "dtype": {"type": "DT_INT32"}}}, {"name": "x", "op": "Placeholder", "attr": {"dtype": {"type": "DT_FLOAT"}, "shape": {"shape": {"dim": [{"size": "1"}, {"size": "224"}, {"size": "448"}, {"size": "3"}]}}}}, {"name": "PartitionedCall/model_13/tf.compat.v1.pad/Pad", "op": "Pad", "input": ["x", "12411"], "attr": {"Tpaddings": {"type": "DT_INT32"}, "T": {"type": "DT_FLOAT"}}}, {"name": "PartitionedCall/model_13/tf.math.add/Add", "op": "_FusedConv2D", "input": ["PartitionedCall/model_13/tf.compat.v1.pad/Pad", "12413", "12415"], "device": "/device:CPU:0", "attr": {"filter_format": {"s": "SFdJTw=="}, "_input_shapes": {"list": {"shape": [{"dim": [{"size": "-34"}, {"size": "-38"}, {"size": "-39"}, {"size": "-37"}]}, {"dim": [{"size": "3"}, {"size": "3"}, {"size": "3"}, {"size": "32"}]}]}}, "strides": {"list": {"i": ["1", "2", "2", "1"]}}, "num_args": {"i": "1"}, "fused_ops": {"list": {"s": ["Qmlhc0FkZA=="]}}, "data_format": {"s": "TkhXQw=="}, "leakyrelu_alpha": {"f": 0.2}, "explicit_paddings": {"list": {}}, "padding": {"s": "VkFMSUQ="}, "TArgs": {"list": {"type": ["DT_FLOAT"]}}, "T": {"type": "DT_FLOAT"}, "num_host_args": {"i": "0"}, "dilations": {"list": {"i": ["1", "1", "1", "1"]}}, "epsilon": {"f": 0.0}, "use_cudnn_on_gpu": {"b": true}}}, {"name": "PartitionedCall/model_13/tf.math.sigmoid/Sigmoid", "op": "Sigmoid", "input": ["PartitionedCall/model_13/tf.math.add/Add"], "attr": {"T": {"type": "DT_FLOAT"}, "_input_shapes": {"list": {"shape": [{"dim": [{"size": "-34"}, {"size": "-40"}, {"size": "-41"}, {"size": "32"}]}]}}}}, {"name": "PartitionedCall/model_13/tf.math.multiply_2/Mul", "op": "Mul", "input": ["PartitionedCall/model_13/tf.math.add/Add", "PartitionedCall/model_13/tf.math.sigmoid/Sigmoid"], "attr": {"T": {"type": "DT_FLOAT"}}}, {"name": "PartitionedCall/model_13/tf.compat.v1.pad_1/Pad", "op": "Pad", "input": ["PartitionedCall/model_13/tf.math.multiply_2/Mul", "12417"], "attr": {"Tpaddings": {"type": "DT_INT32"}, "T": {"type": "DT_FLOAT"}}}, {"name": "PartitionedCall/model_13/tf.math.add_1/Add", "op": "_FusedConv2D", "input": ["PartitionedCall/model_13/tf.compat.v1.pad_1/Pad", "12419", "12421"], "device": "/device:CPU:0", "attr": {"explicit_paddings": {"list": {}}, "TArgs": {"list": {"type": ["DT_FLOAT"]}}, "fused_ops": {"list": {"s": ["Qmlhc0FkZA=="]}}, "leakyrelu_alpha": {"f": 0.2}, "_input_shapes": {"list": {"shape": [{"dim": [{"size": "-34"}, {"size": "-42"}, {"size": "-43"}, {"size": "32"}]}, {"dim": [{"size": "3"}, {"size": "3"}, {"size": "32"}, {"size": "64"}]}]}}, "use_cudnn_on_gpu": {"b": true}, "T": {"type": "DT_FLOAT"}, "strides": {"list": {"i": ["1", "2", "2", "1"]}}, "data_format": {"s": "TkhXQw=="}, "dilations": {"list": {"i": ["1", "1", "1", "1"]}}, "epsilon": {"f": 0.0}, "num_host_args": {"i": "0"}, "padding": {"s": "VkFMSUQ="}, "num_args": {"i": "1"}, "filter_format": {"s": "SFdJTw=="}}}, {"name": "PartitionedCall/model_13/tf.math.sigmoid_1/Sigmoid", "op": "Sigmoid", "input": ["PartitionedCall/model_13/tf.math.add_1/Add"], "attr": {"_input_shapes": {"list": {"shape": [{"dim": [{"size": "-34"}, {"size": "-44"}, {"size": "-45"}, {"size": "64"}]}]}}, "T": {"type": "DT_FLOAT"}}}, {"name": "PartitionedCall/model_13/tf.math.multiply_5/Mul", "op": "Mul", "input": ["PartitionedCall/model_13/tf.math.add_1/Add", "PartitionedCall/model_13/tf.math.sigmoid_1/Sigmoid"], "attr": {"T": {"type": "DT_FLOAT"}}}, {"name": "PartitionedCall/model_13/tf.math.add_2/Add", "op": "_FusedConv2D", "input": ["PartitionedCall/model_13/tf.math.multiply_5/Mul", "12423", "12425"], "device": "/device:CPU:0", "attr": {"explicit_paddings": {"list": {}}, "fused_ops": {"list": {"s": ["Qmlhc0FkZA=="]}}, "leakyrelu_alpha": {"f": 0.2}, "data_format": {"s": "TkhXQw=="}, "T": {"type": "DT_FLOAT"}, "strides": {"list": {"i": ["1", "1", "1", "1"]}}, "use_cudnn_on_gpu": {"b": true}, "_input_shapes": {"list": {"shape": [{"dim": [{"size": "-34"}, {"size": "-44"}, {"size": "-45"}, {"size": "64"}]}, {"dim": [{"size": "1"}, {"size": "1"}, {"size": "64"}, {"size": "64"}]}]}}, "num_args": {"i": "1"}, "filter_format": {"s": "SFdJTw=="}, "epsilon": {"f": 0.0}, "num_host_args": {"i": "0"}, "TArgs": {"list": {"type": ["DT_FLOAT"]}}, "dilations": {"list": {"i": ["1", "1", "1", "1"]}}, "padding": {"s": "U0FNRQ=="}}}, {"name": "PartitionedCall/model_13/tf.math.sigmoid_2/Sigmoid", "op": "Sigmoid", "input": ["PartitionedCall/model_13/tf.math.add_2/Add"], "attr": {"_input_shapes": {"list": {"shape": [{"dim": [{"size": "-34"}, {"size": "-44"}, {"size": "-45"}, {"size": "64"}]}]}}, "T": {"type": "DT_FLOAT"}}}, {"name": "PartitionedCall/model_13/tf.math.multiply_8/Mul", "op": "Mul", "input": ["PartitionedCall/model_13/tf.math.add_2/Add", "PartitionedCall/model_13/tf.math.sigmoid_2/Sigmoid"], "attr": {"T": {"type": "DT_FLOAT"}}}, {"name": "PartitionedCall/model_13/tf.strided_slice/StridedSlice", "op": "StridedSlice", "input": ["PartitionedCall/model_13/tf.math.multiply_8/Mul", "12439", "12441", "PartitionedCall/model_13/tf.strided_slice/ones_like"], "attr": {"T": {"type": "DT_FLOAT"}, "ellipsis_mask": {"i": "0"}, "Index": {"type": "DT_INT64"}, "end_mask": {"i": "7"}, "begin_mask": {"i": "15"}, "shrink_axis_mask": {"i": "0"}, "new_axis_mask": {"i": "0"}}}, {"name": "PartitionedCall/model_13/tf.strided_slice_1/StridedSlice", "op": "StridedSlice", "input": ["PartitionedCall/model_13/tf.math.multiply_8/Mul", "12427", "12429", "PartitionedCall/model_13/tf.strided_slice_1/ones_like"], "attr": {"Index": {"type": "DT_INT64"}, "end_mask": {"i": "7"}, "shrink_axis_mask": {"i": "0"}, "ellipsis_mask": {"i": "0"}, "begin_mask": {"i": "7"}, "new_axis_mask": {"i": "0"}, "T": {"type": "DT_FLOAT"}}}, {"name": "PartitionedCall/model_13/tf.math.add_3/Add", "op": "_FusedConv2D", "input": ["PartitionedCall/model_13/tf.strided_slice_1/StridedSlice", "12431", "12433"], "device": "/device:CPU:0", "attr": {"filter_format": {"s": "SFdJTw=="}, "dilations": {"list": {"i": ["1", "1", "1", "1"]}}, "strides": {"list": {"i": ["1", "1", "1", "1"]}}, "_input_shapes": {"list": {"shape": [{"dim": [{"size": "-5"}, {"size": "-6"}, {"size": "-7"}, {"size": "32"}]}, {"dim": [{"size": "3"}, {"size": "3"}, {"size": "32"}, {"size": "32"}]}]}}, "num_host_args": {"i": "0"}, "num_args": {"i": "1"}, "epsilon": {"f": 0.0}, "explicit_paddings": {"list": {}}, "padding": {"s": "U0FNRQ=="}, "use_cudnn_on_gpu": {"b": true}, "data_format": {"s": "TkhXQw=="}, "TArgs": {"list": {"type": ["DT_FLOAT"]}}, "fused_ops": {"list": {"s": ["Qmlhc0FkZA=="]}}, "leakyrelu_alpha": {"f": 0.2}, "T": {"type": "DT_FLOAT"}}}, {"name": "PartitionedCall/model_13/tf.math.sigmoid_3/Sigmoid", "op": "Sigmoid", "input": ["PartitionedCall/model_13/tf.math.add_3/Add"], "attr": {"T": {"type": "DT_FLOAT"}, "_input_shapes": {"list": {"shape": [{"dim": [{"size": "-5"}, {"size": "-6"}, {"size": "-7"}, {"size": "32"}]}]}}}}, {"name": "PartitionedCall/model_13/tf.math.multiply_11/Mul", "op": "Mul", "input": ["PartitionedCall/model_13/tf.math.add_3/Add", "PartitionedCall/model_13/tf.math.sigmoid_3/Sigmoid"], "attr": {"T": {"type": "DT_FLOAT"}}}, {"name": "PartitionedCall/model_13/tf.math.add_4/Add", "op": "_FusedConv2D", "input": ["PartitionedCall/model_13/tf.math.multiply_11/Mul", "12435", "12437"], "device": "/device:CPU:0", "attr": {"dilations": {"list": {"i": ["1", "1", "1", "1"]}}, "explicit_paddings": {"list": {}}, "filter_format": {"s": "SFdJTw=="}, "epsilon": {"f": 0.0}, "num_host_args": {"i": "0"}, "num_args": {"i": "1"}, "use_cudnn_on_gpu": {"b": true}, "padding": {"s": "U0FNRQ=="}, "T": {"type": "DT_FLOAT"}, "fused_ops": {"list": {"s": ["Qmlhc0FkZA=="]}}, "leakyrelu_alpha": {"f": 0.2}, "_input_shapes": {"list": {"shape": [{"dim": [{"size": "-5"}, {"size": "-6"}, {"size": "-7"}, {"size": "32"}]}, {"dim": [{"size": "3"}, {"size": "3"}, {"size": "32"}, {"size": "32"}]}]}}, "data_format": {"s": "TkhXQw=="}, "strides": {"list": {"i": ["1", "1", "1", "1"]}}, "TArgs": {"list": {"type": ["DT_FLOAT"]}}}}, {"name": "PartitionedCall/model_13/tf.math.sigmoid_4/Sigmoid", "op": "Sigmoid", "input": ["PartitionedCall/model_13/tf.math.add_4/Add"], "attr": {"_input_shapes": {"list": {"shape": [{"dim": [{"size": "-5"}, {"size": "-6"}, {"size": "-7"}, {"size": "32"}]}]}}, "T": {"type": "DT_FLOAT"}}}, {"name": "PartitionedCall/model_13/tf.math.multiply_14/Mul", "op": "Mul", "input": ["PartitionedCall/model_13/tf.math.add_4/Add", "PartitionedCall/model_13/tf.math.sigmoid_4/Sigmoid"], "attr": {"T": {"type": "DT_FLOAT"}}}, {"name": "PartitionedCall/model_13/tf.math.add_5/Add", "op": "AddV2", "input": ["PartitionedCall/model_13/tf.strided_slice_1/StridedSlice", "PartitionedCall/model_13/tf.math.multiply_14/Mul"], "attr": {"T": {"type": "DT_FLOAT"}}}, {"name": "PartitionedCall/model_13/tf.concat/concat", "op": "ConcatV2", "input": ["PartitionedCall/model_13/tf.strided_slice/StridedSlice", "PartitionedCall/model_13/tf.strided_slice_1/StridedSlice", "PartitionedCall/model_13/tf.math.add_5/Add", "PartitionedCall/model_13/tf.concat/concat/axis"], "attr": {"T": {"type": "DT_FLOAT"}, "N": {"i": "3"}, "Tidx": {"type": "DT_INT32"}}}, {"name": "PartitionedCall/model_13/tf.math.add_6/Add", "op": "_FusedConv2D", "input": ["PartitionedCall/model_13/tf.concat/concat", "12443", "12445"], "device": "/device:CPU:0", "attr": {"explicit_paddings": {"list": {}}, "leakyrelu_alpha": {"f": 0.2}, "num_args": {"i": "1"}, "strides": {"list": {"i": ["1", "1", "1", "1"]}}, "dilations": {"list": {"i": ["1", "1", "1", "1"]}}, "epsilon": {"f": 0.0}, "data_format": {"s": "TkhXQw=="}, "filter_format": {"s": "SFdJTw=="}, "num_host_args": {"i": "0"}, "padding": {"s": "U0FNRQ=="}, "use_cudnn_on_gpu": {"b": true}, "TArgs": {"list": {"type": ["DT_FLOAT"]}}, "_input_shapes": {"list": {"shape": [{"dim": [{"size": "-5"}, {"size": "-6"}, {"size": "-7"}, {"size": "96"}]}, {"dim": [{"size": "1"}, {"size": "1"}, {"size": "96"}, {"size": "64"}]}]}}, "fused_ops": {"list": {"s": ["Qmlhc0FkZA=="]}}, "T": {"type": "DT_FLOAT"}}}, {"name": "PartitionedCall/model_13/tf.math.sigmoid_5/Sigmoid", "op": "Sigmoid", "input": ["PartitionedCall/model_13/tf.math.add_6/Add"], "attr": {"_input_shapes": {"list": {"shape": [{"dim": [{"size": "-5"}, {"size": "-6"}, {"size": "-7"}, {"size": "64"}]}]}}, "T": {"type": "DT_FLOAT"}}}, {"name": "PartitionedCall/model_13/tf.math.multiply_19/Mul", "op": "Mul", "input": ["PartitionedCall/model_13/tf.math.add_6/Add", "PartitionedCall/model_13/tf.math.sigmoid_5/Sigmoid"], "attr": {"T": {"type": "DT_FLOAT"}}}, {"name": "PartitionedCall/model_13/tf.compat.v1.pad_2/Pad", "op": "Pad", "input": ["PartitionedCall/model_13/tf.math.multiply_19/Mul", "12447"], "attr": {"T": {"type": "DT_FLOAT"}, "Tpaddings": {"type": "DT_INT32"}}}, {"name": "PartitionedCall/model_13/tf.math.add_7/Add", "op": "_FusedConv2D", "input": ["PartitionedCall/model_13/tf.compat.v1.pad_2/Pad", "12449", "12451"], "device": "/device:CPU:0", "attr": {"epsilon": {"f": 0.0}, "T": {"type": "DT_FLOAT"}, "data_format": {"s": "TkhXQw=="}, "leakyrelu_alpha": {"f": 0.2}, "_input_shapes": {"list": {"shape": [{"dim": [{"size": "-5"}, {"size": "-46"}, {"size": "-47"}, {"size": "64"}]}, {"dim": [{"size": "3"}, {"size": "3"}, {"size": "64"}, {"size": "128"}]}]}}, "fused_ops": {"list": {"s": ["Qmlhc0FkZA=="]}}, "num_host_args": {"i": "0"}, "filter_format": {"s": "SFdJTw=="}, "TArgs": {"list": {"type": ["DT_FLOAT"]}}, "padding": {"s": "VkFMSUQ="}, "explicit_paddings": {"list": {}}, "num_args": {"i": "1"}, "use_cudnn_on_gpu": {"b": true}, "dilations": {"list": {"i": ["1", "1", "1", "1"]}}, "strides": {"list": {"i": ["1", "2", "2", "1"]}}}}, {"name": "PartitionedCall/model_13/tf.math.sigmoid_6/Sigmoid", "op": "Sigmoid", "input": ["PartitionedCall/model_13/tf.math.add_7/Add"], "attr": {"T": {"type": "DT_FLOAT"}, "_input_shapes": {"list": {"shape": [{"dim": [{"size": "-5"}, {"size": "-48"}, {"size": "-49"}, {"size": "128"}]}]}}}}, {"name": "PartitionedCall/model_13/tf.math.multiply_22/Mul", "op": "Mul", "input": ["PartitionedCall/model_13/tf.math.add_7/Add", "PartitionedCall/model_13/tf.math.sigmoid_6/Sigmoid"], "attr": {"T": {"type": "DT_FLOAT"}}}, {"name": "PartitionedCall/model_13/tf.math.add_8/Add", "op": "_FusedConv2D", "input": ["PartitionedCall/model_13/tf.math.multiply_22/Mul", "12453", "12455"], "device": "/device:CPU:0", "attr": {"fused_ops": {"list": {"s": ["Qmlhc0FkZA=="]}}, "num_args": {"i": "1"}, "epsilon": {"f": 0.0}, "leakyrelu_alpha": {"f": 0.2}, "use_cudnn_on_gpu": {"b": true}, "TArgs": {"list": {"type": ["DT_FLOAT"]}}, "num_host_args": {"i": "0"}, "padding": {"s": "U0FNRQ=="}, "_input_shapes": {"list": {"shape": [{"dim": [{"size": "-5"}, {"size": "-48"}, {"size": "-49"}, {"size": "128"}]}, {"dim": [{"size": "1"}, {"size": "1"}, {"size": "128"}, {"size": "128"}]}]}}, "dilations": {"list": {"i": ["1", "1", "1", "1"]}}, "data_format": {"s": "TkhXQw=="}, "T": {"type": "DT_FLOAT"}, "strides": {"list": {"i": ["1", "1", "1", "1"]}}, "explicit_paddings": {"list": {}}, "filter_format": {"s": "SFdJTw=="}}}, {"name": "PartitionedCall/model_13/tf.math.sigmoid_7/Sigmoid", "op": "Sigmoid", "input": ["PartitionedCall/model_13/tf.math.add_8/Add"], "attr": {"T": {"type": "DT_FLOAT"}, "_input_shapes": {"list": {"shape": [{"dim": [{"size": "-5"}, {"size": "-48"}, {"size": "-49"}, {"size": "128"}]}]}}}}, {"name": "PartitionedCall/model_13/tf.math.multiply_25/Mul", "op": "Mul", "input": ["PartitionedCall/model_13/tf.math.add_8/Add", "PartitionedCall/model_13/tf.math.sigmoid_7/Sigmoid"], "attr": {"T": {"type": "DT_FLOAT"}}}, {"name": "PartitionedCall/model_13/tf.strided_slice_2/StridedSlice", "op": "StridedSlice", "input": ["PartitionedCall/model_13/tf.math.multiply_25/Mul", "12477", "12479", "PartitionedCall/model_13/tf.strided_slice_2/ones_like"], "attr": {"Index": {"type": "DT_INT64"}, "end_mask": {"i": "7"}, "new_axis_mask": {"i": "0"}, "begin_mask": {"i": "15"}, "shrink_axis_mask": {"i": "0"}, "ellipsis_mask": {"i": "0"}, "T": {"type": "DT_FLOAT"}}}, {"name": "PartitionedCall/model_13/tf.strided_slice_3/StridedSlice", "op": "StridedSlice", "input": ["PartitionedCall/model_13/tf.math.multiply_25/Mul", "12457", "12459", "PartitionedCall/model_13/tf.strided_slice_3/ones_like"], "attr": {"begin_mask": {"i": "7"}, "Index": {"type": "DT_INT64"}, "new_axis_mask": {"i": "0"}, "ellipsis_mask": {"i": "0"}, "end_mask": {"i": "7"}, "T": {"type": "DT_FLOAT"}, "shrink_axis_mask": {"i": "0"}}}, {"name": "PartitionedCall/model_13/tf.math.add_9/Add", "op": "_FusedConv2D", "input": ["PartitionedCall/model_13/tf.strided_slice_3/StridedSlice", "12461", "12463"], "device": "/device:CPU:0", "attr": {"data_format": {"s": "TkhXQw=="}, "TArgs": {"list": {"type": ["DT_FLOAT"]}}, "explicit_paddings": {"list": {}}, "num_args": {"i": "1"}, "num_host_args": {"i": "0"}, "strides": {"list": {"i": ["1", "1", "1", "1"]}}, "_input_shapes": {"list": {"shape": [{"dim": [{"size": "-27"}, {"size": "28"}, {"size": "56"}, {"size": "64"}]}, {"dim": [{"size": "3"}, {"size": "3"}, {"size": "64"}, {"size": "64"}]}]}}, "T": {"type": "DT_FLOAT"}, "epsilon": {"f": 0.0}, "dilations": {"list": {"i": ["1", "1", "1", "1"]}}, "use_cudnn_on_gpu": {"b": true}, "padding": {"s": "U0FNRQ=="}, "fused_ops": {"list": {"s": ["Qmlhc0FkZA=="]}}, "filter_format": {"s": "SFdJTw=="}, "leakyrelu_alpha": {"f": 0.2}}}, {"name": "PartitionedCall/model_13/tf.math.sigmoid_8/Sigmoid", "op": "Sigmoid", "input": ["PartitionedCall/model_13/tf.math.add_9/Add"], "attr": {"_input_shapes": {"list": {"shape": [{"dim": [{"size": "-27"}, {"size": "28"}, {"size": "56"}, {"size": "64"}]}]}}, "T": {"type": "DT_FLOAT"}}}, {"name": "PartitionedCall/model_13/tf.math.multiply_28/Mul", "op": "Mul", "input": ["PartitionedCall/model_13/tf.math.add_9/Add", "PartitionedCall/model_13/tf.math.sigmoid_8/Sigmoid"], "attr": {"T": {"type": "DT_FLOAT"}}}, {"name": "PartitionedCall/model_13/tf.math.add_10/Add", "op": "_FusedConv2D", "input": ["PartitionedCall/model_13/tf.math.multiply_28/Mul", "12465", "12467"], "device": "/device:CPU:0", "attr": {"use_cudnn_on_gpu": {"b": true}, "data_format": {"s": "TkhXQw=="}, "fused_ops": {"list": {"s": ["Qmlhc0FkZA=="]}}, "epsilon": {"f": 0.0}, "filter_format": {"s": "SFdJTw=="}, "strides": {"list": {"i": ["1", "1", "1", "1"]}}, "leakyrelu_alpha": {"f": 0.2}, "num_host_args": {"i": "0"}, "padding": {"s": "U0FNRQ=="}, "explicit_paddings": {"list": {}}, "_input_shapes": {"list": {"shape": [{"dim": [{"size": "-27"}, {"size": "28"}, {"size": "56"}, {"size": "64"}]}, {"dim": [{"size": "3"}, {"size": "3"}, {"size": "64"}, {"size": "64"}]}]}}, "TArgs": {"list": {"type": ["DT_FLOAT"]}}, "dilations": {"list": {"i": ["1", "1", "1", "1"]}}, "num_args": {"i": "1"}, "T": {"type": "DT_FLOAT"}}}, {"name": "PartitionedCall/model_13/tf.math.sigmoid_9/Sigmoid", "op": "Sigmoid", "input": ["PartitionedCall/model_13/tf.math.add_10/Add"], "attr": {"T": {"type": "DT_FLOAT"}, "_input_shapes": {"list": {"shape": [{"dim": [{"size": "-27"}, {"size": "28"}, {"size": "56"}, {"size": "64"}]}]}}}}, {"name": "PartitionedCall/model_13/tf.math.multiply_31/Mul", "op": "Mul", "input": ["PartitionedCall/model_13/tf.math.add_10/Add", "PartitionedCall/model_13/tf.math.sigmoid_9/Sigmoid"], "attr": {"T": {"type": "DT_FLOAT"}}}, {"name": "PartitionedCall/model_13/tf.math.add_11/Add", "op": "AddV2", "input": ["PartitionedCall/model_13/tf.strided_slice_3/StridedSlice", "PartitionedCall/model_13/tf.math.multiply_31/Mul"], "attr": {"T": {"type": "DT_FLOAT"}}}, {"name": "PartitionedCall/model_13/tf.math.add_12/Add", "op": "_FusedConv2D", "input": ["PartitionedCall/model_13/tf.math.add_11/Add", "12469", "12471"], "device": "/device:CPU:0", "attr": {"num_host_args": {"i": "0"}, "filter_format": {"s": "SFdJTw=="}, "padding": {"s": "U0FNRQ=="}, "epsilon": {"f": 0.0}, "use_cudnn_on_gpu": {"b": true}, "leakyrelu_alpha": {"f": 0.2}, "data_format": {"s": "TkhXQw=="}, "_input_shapes": {"list": {"shape": [{"dim": [{"size": "-27"}, {"size": "28"}, {"size": "56"}, {"size": "64"}]}, {"dim": [{"size": "3"}, {"size": "3"}, {"size": "64"}, {"size": "64"}]}]}}, "num_args": {"i": "1"}, "TArgs": {"list": {"type": ["DT_FLOAT"]}}, "T": {"type": "DT_FLOAT"}, "explicit_paddings": {"list": {}}, "strides": {"list": {"i": ["1", "1", "1", "1"]}}, "fused_ops": {"list": {"s": ["Qmlhc0FkZA=="]}}, "dilations": {"list": {"i": ["1", "1", "1", "1"]}}}}, {"name": "PartitionedCall/model_13/tf.math.sigmoid_10/Sigmoid", "op": "Sigmoid", "input": ["PartitionedCall/model_13/tf.math.add_12/Add"], "attr": {"T": {"type": "DT_FLOAT"}, "_input_shapes": {"list": {"shape": [{"dim": [{"size": "-27"}, {"size": "28"}, {"size": "56"}, {"size": "64"}]}]}}}}, {"name": "PartitionedCall/model_13/tf.math.multiply_36/Mul", "op": "Mul", "input": ["PartitionedCall/model_13/tf.math.add_12/Add", "PartitionedCall/model_13/tf.math.sigmoid_10/Sigmoid"], "attr": {"T": {"type": "DT_FLOAT"}}}, {"name": "PartitionedCall/model_13/tf.math.add_13/Add", "op": "_FusedConv2D", "input": ["PartitionedCall/model_13/tf.math.multiply_36/Mul", "12473", "12475"], "device": "/device:CPU:0", "attr": {"_input_shapes": {"list": {"shape": [{"dim": [{"size": "-27"}, {"size": "28"}, {"size": "56"}, {"size": "64"}]}, {"dim": [{"size": "3"}, {"size": "3"}, {"size": "64"}, {"size": "64"}]}]}}, "explicit_paddings": {"list": {}}, "data_format": {"s": "TkhXQw=="}, "filter_format": {"s": "SFdJTw=="}, "strides": {"list": {"i": ["1", "1", "1", "1"]}}, "use_cudnn_on_gpu": {"b": true}, "num_args": {"i": "1"}, "dilations": {"list": {"i": ["1", "1", "1", "1"]}}, "epsilon": {"f": 0.0}, "leakyrelu_alpha": {"f": 0.2}, "T": {"type": "DT_FLOAT"}, "padding": {"s": "U0FNRQ=="}, "num_host_args": {"i": "0"}, "TArgs": {"list": {"type": ["DT_FLOAT"]}}, "fused_ops": {"list": {"s": ["Qmlhc0FkZA=="]}}}}, {"name": "PartitionedCall/model_13/tf.math.sigmoid_11/Sigmoid", "op": "Sigmoid", "input": ["PartitionedCall/model_13/tf.math.add_13/Add"], "attr": {"_input_shapes": {"list": {"shape": [{"dim": [{"size": "-27"}, {"size": "28"}, {"size": "56"}, {"size": "64"}]}]}}, "T": {"type": "DT_FLOAT"}}}, {"name": "PartitionedCall/model_13/tf.math.multiply_39/Mul", "op": "Mul", "input": ["PartitionedCall/model_13/tf.math.add_13/Add", "PartitionedCall/model_13/tf.math.sigmoid_11/Sigmoid"], "attr": {"T": {"type": "DT_FLOAT"}}}, {"name": "PartitionedCall/model_13/tf.math.add_14/Add", "op": "AddV2", "input": ["PartitionedCall/model_13/tf.math.add_11/Add", "PartitionedCall/model_13/tf.math.multiply_39/Mul"], "attr": {"T": {"type": "DT_FLOAT"}}}, {"name": "PartitionedCall/model_13/tf.concat_1/concat", "op": "ConcatV2", "input": ["PartitionedCall/model_13/tf.strided_slice_2/StridedSlice", "PartitionedCall/model_13/tf.strided_slice_3/StridedSlice", "PartitionedCall/model_13/tf.math.add_11/Add", "PartitionedCall/model_13/tf.math.add_14/Add", "PartitionedCall/model_13/tf.concat_1/concat/axis"], "attr": {"N": {"i": "4"}, "T": {"type": "DT_FLOAT"}, "Tidx": {"type": "DT_INT32"}}}, {"name": "PartitionedCall/model_13/tf.math.add_15/Add", "op": "_FusedConv2D", "input": ["PartitionedCall/model_13/tf.concat_1/concat", "12481", "12483"], "device": "/device:CPU:0", "attr": {"num_args": {"i": "1"}, "TArgs": {"list": {"type": ["DT_FLOAT"]}}, "filter_format": {"s": "SFdJTw=="}, "data_format": {"s": "TkhXQw=="}, "dilations": {"list": {"i": ["1", "1", "1", "1"]}}, "padding": {"s": "U0FNRQ=="}, "fused_ops": {"list": {"s": ["Qmlhc0FkZA=="]}}, "leakyrelu_alpha": {"f": 0.2}, "epsilon": {"f": 0.0}, "T": {"type": "DT_FLOAT"}, "strides": {"list": {"i": ["1", "1", "1", "1"]}}, "_input_shapes": {"list": {"shape": [{"dim": [{"size": "-27"}, {"size": "28"}, {"size": "56"}, {"size": "256"}]}, {"dim": [{"size": "1"}, {"size": "1"}, {"size": "256"}, {"size": "128"}]}]}}, "use_cudnn_on_gpu": {"b": true}, "num_host_args": {"i": "0"}, "explicit_paddings": {"list": {}}}}, {"name": "PartitionedCall/model_13/tf.math.sigmoid_12/Sigmoid", "op": "Sigmoid", "input": ["PartitionedCall/model_13/tf.math.add_15/Add"], "attr": {"_input_shapes": {"list": {"shape": [{"dim": [{"size": "-27"}, {"size": "28"}, {"size": "56"}, {"size": "128"}]}]}}, "T": {"type": "DT_FLOAT"}}}, {"name": "PartitionedCall/model_13/tf.math.multiply_44/Mul", "op": "Mul", "input": ["PartitionedCall/model_13/tf.math.add_15/Add", "PartitionedCall/model_13/tf.math.sigmoid_12/Sigmoid"], "attr": {"T": {"type": "DT_FLOAT"}}}, {"name": "PartitionedCall/model_13/tf.compat.v1.pad_3/Pad", "op": "Pad", "input": ["PartitionedCall/model_13/tf.math.multiply_44/Mul", "12485"], "attr": {"T": {"type": "DT_FLOAT"}, "Tpaddings": {"type": "DT_INT32"}}}, {"name": "PartitionedCall/model_13/tf.math.add_16/Add", "op": "_FusedConv2D", "input": ["PartitionedCall/model_13/tf.compat.v1.pad_3/Pad", "12487", "12489"], "device": "/device:CPU:0", "attr": {"num_args": {"i": "1"}, "data_format": {"s": "TkhXQw=="}, "filter_format": {"s": "SFdJTw=="}, "leakyrelu_alpha": {"f": 0.2}, "padding": {"s": "VkFMSUQ="}, "T": {"type": "DT_FLOAT"}, "TArgs": {"list": {"type": ["DT_FLOAT"]}}, "fused_ops": {"list": {"s": ["Qmlhc0FkZA=="]}}, "num_host_args": {"i": "0"}, "strides": {"list": {"i": ["1", "2", "2", "1"]}}, "_input_shapes": {"list": {"shape": [{"dim": [{"size": "-27"}, {"size": "-50"}, {"size": "-51"}, {"size": "128"}]}, {"dim": [{"size": "3"}, {"size": "3"}, {"size": "128"}, {"size": "256"}]}]}}, "epsilon": {"f": 0.0}, "explicit_paddings": {"list": {}}, "dilations": {"list": {"i": ["1", "1", "1", "1"]}}, "use_cudnn_on_gpu": {"b": true}}}, {"name": "PartitionedCall/model_13/tf.math.sigmoid_13/Sigmoid", "op": "Sigmoid", "input": ["PartitionedCall/model_13/tf.math.add_16/Add"], "attr": {"_input_shapes": {"list": {"shape": [{"dim": [{"size": "-27"}, {"size": "-52"}, {"size": "-53"}, {"size": "256"}]}]}}, "T": {"type": "DT_FLOAT"}}}, {"name": "PartitionedCall/model_13/tf.math.multiply_47/Mul", "op": "Mul", "input": ["PartitionedCall/model_13/tf.math.add_16/Add", "PartitionedCall/model_13/tf.math.sigmoid_13/Sigmoid"], "attr": {"T": {"type": "DT_FLOAT"}}}, {"name": "PartitionedCall/model_13/tf.math.add_17/Add", "op": "_FusedConv2D", "input": ["PartitionedCall/model_13/tf.math.multiply_47/Mul", "12491", "12493"], "device": "/device:CPU:0", "attr": {"leakyrelu_alpha": {"f": 0.2}, "use_cudnn_on_gpu": {"b": true}, "epsilon": {"f": 0.0}, "explicit_paddings": {"list": {}}, "T": {"type": "DT_FLOAT"}, "filter_format": {"s": "SFdJTw=="}, "TArgs": {"list": {"type": ["DT_FLOAT"]}}, "_input_shapes": {"list": {"shape": [{"dim": [{"size": "-27"}, {"size": "-52"}, {"size": "-53"}, {"size": "256"}]}, {"dim": [{"size": "1"}, {"size": "1"}, {"size": "256"}, {"size": "256"}]}]}}, "num_args": {"i": "1"}, "num_host_args": {"i": "0"}, "data_format": {"s": "TkhXQw=="}, "dilations": {"list": {"i": ["1", "1", "1", "1"]}}, "strides": {"list": {"i": ["1", "1", "1", "1"]}}, "padding": {"s": "U0FNRQ=="}, "fused_ops": {"list": {"s": ["Qmlhc0FkZA=="]}}}}, {"name": "PartitionedCall/model_13/tf.math.sigmoid_14/Sigmoid", "op": "Sigmoid", "input": ["PartitionedCall/model_13/tf.math.add_17/Add"], "attr": {"_input_shapes": {"list": {"shape": [{"dim": [{"size": "-27"}, {"size": "-52"}, {"size": "-53"}, {"size": "256"}]}]}}, "T": {"type": "DT_FLOAT"}}}, {"name": "PartitionedCall/model_13/tf.math.multiply_50/Mul", "op": "Mul", "input": ["PartitionedCall/model_13/tf.math.add_17/Add", "PartitionedCall/model_13/tf.math.sigmoid_14/Sigmoid"], "attr": {"T": {"type": "DT_FLOAT"}}}, {"name": "PartitionedCall/model_13/tf.strided_slice_4/StridedSlice", "op": "StridedSlice", "input": ["PartitionedCall/model_13/tf.math.multiply_50/Mul", "12515", "12517", "PartitionedCall/model_13/tf.strided_slice_4/ones_like"], "attr": {"end_mask": {"i": "7"}, "Index": {"type": "DT_INT64"}, "shrink_axis_mask": {"i": "0"}, "begin_mask": {"i": "15"}, "new_axis_mask": {"i": "0"}, "ellipsis_mask": {"i": "0"}, "T": {"type": "DT_FLOAT"}}}, {"name": "PartitionedCall/model_13/tf.strided_slice_5/StridedSlice", "op": "StridedSlice", "input": ["PartitionedCall/model_13/tf.math.multiply_50/Mul", "12495", "12497", "PartitionedCall/model_13/tf.strided_slice_5/ones_like"], "attr": {"Index": {"type": "DT_INT64"}, "end_mask": {"i": "7"}, "T": {"type": "DT_FLOAT"}, "begin_mask": {"i": "7"}, "new_axis_mask": {"i": "0"}, "ellipsis_mask": {"i": "0"}, "shrink_axis_mask": {"i": "0"}}}, {"name": "PartitionedCall/model_13/tf.math.add_18/Add", "op": "_FusedConv2D", "input": ["PartitionedCall/model_13/tf.strided_slice_5/StridedSlice", "12499", "12501"], "device": "/device:CPU:0", "attr": {"epsilon": {"f": 0.0}, "filter_format": {"s": "SFdJTw=="}, "num_args": {"i": "1"}, "fused_ops": {"list": {"s": ["Qmlhc0FkZA=="]}}, "T": {"type": "DT_FLOAT"}, "_input_shapes": {"list": {"shape": [{"dim": [{"size": "-23"}, {"size": "14"}, {"size": "28"}, {"size": "128"}]}, {"dim": [{"size": "3"}, {"size": "3"}, {"size": "128"}, {"size": "128"}]}]}}, "strides": {"list": {"i": ["1", "1", "1", "1"]}}, "leakyrelu_alpha": {"f": 0.2}, "num_host_args": {"i": "0"}, "explicit_paddings": {"list": {}}, "use_cudnn_on_gpu": {"b": true}, "dilations": {"list": {"i": ["1", "1", "1", "1"]}}, "data_format": {"s": "TkhXQw=="}, "padding": {"s": "U0FNRQ=="}, "TArgs": {"list": {"type": ["DT_FLOAT"]}}}}, {"name": "PartitionedCall/model_13/tf.math.sigmoid_15/Sigmoid", "op": "Sigmoid", "input": ["PartitionedCall/model_13/tf.math.add_18/Add"], "attr": {"T": {"type": "DT_FLOAT"}, "_input_shapes": {"list": {"shape": [{"dim": [{"size": "-23"}, {"size": "14"}, {"size": "28"}, {"size": "128"}]}]}}}}, {"name": "PartitionedCall/model_13/tf.math.multiply_53/Mul", "op": "Mul", "input": ["PartitionedCall/model_13/tf.math.add_18/Add", "PartitionedCall/model_13/tf.math.sigmoid_15/Sigmoid"], "attr": {"T": {"type": "DT_FLOAT"}}}, {"name": "PartitionedCall/model_13/tf.math.add_19/Add", "op": "_FusedConv2D", "input": ["PartitionedCall/model_13/tf.math.multiply_53/Mul", "12503", "12505"], "device": "/device:CPU:0", "attr": {"data_format": {"s": "TkhXQw=="}, "fused_ops": {"list": {"s": ["Qmlhc0FkZA=="]}}, "_input_shapes": {"list": {"shape": [{"dim": [{"size": "-23"}, {"size": "14"}, {"size": "28"}, {"size": "128"}]}, {"dim": [{"size": "3"}, {"size": "3"}, {"size": "128"}, {"size": "128"}]}]}}, "padding": {"s": "U0FNRQ=="}, "strides": {"list": {"i": ["1", "1", "1", "1"]}}, "leakyrelu_alpha": {"f": 0.2}, "use_cudnn_on_gpu": {"b": true}, "filter_format": {"s": "SFdJTw=="}, "epsilon": {"f": 0.0}, "dilations": {"list": {"i": ["1", "1", "1", "1"]}}, "TArgs": {"list": {"type": ["DT_FLOAT"]}}, "num_args": {"i": "1"}, "num_host_args": {"i": "0"}, "explicit_paddings": {"list": {}}, "T": {"type": "DT_FLOAT"}}}, {"name": "PartitionedCall/model_13/tf.math.sigmoid_16/Sigmoid", "op": "Sigmoid", "input": ["PartitionedCall/model_13/tf.math.add_19/Add"], "attr": {"_input_shapes": {"list": {"shape": [{"dim": [{"size": "-23"}, {"size": "14"}, {"size": "28"}, {"size": "128"}]}]}}, "T": {"type": "DT_FLOAT"}}}, {"name": "PartitionedCall/model_13/tf.math.multiply_56/Mul", "op": "Mul", "input": ["PartitionedCall/model_13/tf.math.add_19/Add", "PartitionedCall/model_13/tf.math.sigmoid_16/Sigmoid"], "attr": {"T": {"type": "DT_FLOAT"}}}, {"name": "PartitionedCall/model_13/tf.math.add_20/Add", "op": "AddV2", "input": ["PartitionedCall/model_13/tf.strided_slice_5/StridedSlice", "PartitionedCall/model_13/tf.math.multiply_56/Mul"], "attr": {"T": {"type": "DT_FLOAT"}}}, {"name": "PartitionedCall/model_13/tf.math.add_21/Add", "op": "_FusedConv2D", "input": ["PartitionedCall/model_13/tf.math.add_20/Add", "12507", "12509"], "device": "/device:CPU:0", "attr": {"use_cudnn_on_gpu": {"b": true}, "padding": {"s": "U0FNRQ=="}, "fused_ops": {"list": {"s": ["Qmlhc0FkZA=="]}}, "num_host_args": {"i": "0"}, "TArgs": {"list": {"type": ["DT_FLOAT"]}}, "leakyrelu_alpha": {"f": 0.2}, "strides": {"list": {"i": ["1", "1", "1", "1"]}}, "dilations": {"list": {"i": ["1", "1", "1", "1"]}}, "filter_format": {"s": "SFdJTw=="}, "num_args": {"i": "1"}, "epsilon": {"f": 0.0}, "explicit_paddings": {"list": {}}, "_input_shapes": {"list": {"shape": [{"dim": [{"size": "-23"}, {"size": "14"}, {"size": "28"}, {"size": "128"}]}, {"dim": [{"size": "3"}, {"size": "3"}, {"size": "128"}, {"size": "128"}]}]}}, "T": {"type": "DT_FLOAT"}, "data_format": {"s": "TkhXQw=="}}}, {"name": "PartitionedCall/model_13/tf.math.sigmoid_17/Sigmoid", "op": "Sigmoid", "input": ["PartitionedCall/model_13/tf.math.add_21/Add"], "attr": {"_input_shapes": {"list": {"shape": [{"dim": [{"size": "-23"}, {"size": "14"}, {"size": "28"}, {"size": "128"}]}]}}, "T": {"type": "DT_FLOAT"}}}, {"name": "PartitionedCall/model_13/tf.math.multiply_61/Mul", "op": "Mul", "input": ["PartitionedCall/model_13/tf.math.add_21/Add", "PartitionedCall/model_13/tf.math.sigmoid_17/Sigmoid"], "attr": {"T": {"type": "DT_FLOAT"}}}, {"name": "PartitionedCall/model_13/tf.math.add_22/Add", "op": "_FusedConv2D", "input": ["PartitionedCall/model_13/tf.math.multiply_61/Mul", "12511", "12513"], "device": "/device:CPU:0", "attr": {"padding": {"s": "U0FNRQ=="}, "TArgs": {"list": {"type": ["DT_FLOAT"]}}, "data_format": {"s": "TkhXQw=="}, "use_cudnn_on_gpu": {"b": true}, "filter_format": {"s": "SFdJTw=="}, "dilations": {"list": {"i": ["1", "1", "1", "1"]}}, "leakyrelu_alpha": {"f": 0.2}, "T": {"type": "DT_FLOAT"}, "explicit_paddings": {"list": {}}, "strides": {"list": {"i": ["1", "1", "1", "1"]}}, "epsilon": {"f": 0.0}, "num_args": {"i": "1"}, "num_host_args": {"i": "0"}, "_input_shapes": {"list": {"shape": [{"dim": [{"size": "-23"}, {"size": "14"}, {"size": "28"}, {"size": "128"}]}, {"dim": [{"size": "3"}, {"size": "3"}, {"size": "128"}, {"size": "128"}]}]}}, "fused_ops": {"list": {"s": ["Qmlhc0FkZA=="]}}}}, {"name": "PartitionedCall/model_13/tf.math.sigmoid_18/Sigmoid", "op": "Sigmoid", "input": ["PartitionedCall/model_13/tf.math.add_22/Add"], "attr": {"T": {"type": "DT_FLOAT"}, "_input_shapes": {"list": {"shape": [{"dim": [{"size": "-23"}, {"size": "14"}, {"size": "28"}, {"size": "128"}]}]}}}}, {"name": "PartitionedCall/model_13/tf.math.multiply_64/Mul", "op": "Mul", "input": ["PartitionedCall/model_13/tf.math.add_22/Add", "PartitionedCall/model_13/tf.math.sigmoid_18/Sigmoid"], "attr": {"T": {"type": "DT_FLOAT"}}}, {"name": "PartitionedCall/model_13/tf.math.add_23/Add", "op": "AddV2", "input": ["PartitionedCall/model_13/tf.math.add_20/Add", "PartitionedCall/model_13/tf.math.multiply_64/Mul"], "attr": {"T": {"type": "DT_FLOAT"}}}, {"name": "PartitionedCall/model_13/tf.concat_2/concat", "op": "ConcatV2", "input": ["PartitionedCall/model_13/tf.strided_slice_4/StridedSlice", "PartitionedCall/model_13/tf.strided_slice_5/StridedSlice", "PartitionedCall/model_13/tf.math.add_20/Add", "PartitionedCall/model_13/tf.math.add_23/Add", "PartitionedCall/model_13/tf.concat_2/concat/axis"], "attr": {"N": {"i": "4"}, "Tidx": {"type": "DT_INT32"}, "T": {"type": "DT_FLOAT"}}}, {"name": "PartitionedCall/model_13/tf.math.add_24/Add", "op": "_FusedConv2D", "input": ["PartitionedCall/model_13/tf.concat_2/concat", "12519", "12521"], "device": "/device:CPU:0", "attr": {"num_host_args": {"i": "0"}, "padding": {"s": "U0FNRQ=="}, "use_cudnn_on_gpu": {"b": true}, "TArgs": {"list": {"type": ["DT_FLOAT"]}}, "leakyrelu_alpha": {"f": 0.2}, "data_format": {"s": "TkhXQw=="}, "num_args": {"i": "1"}, "fused_ops": {"list": {"s": ["Qmlhc0FkZA=="]}}, "filter_format": {"s": "SFdJTw=="}, "epsilon": {"f": 0.0}, "strides": {"list": {"i": ["1", "1", "1", "1"]}}, "dilations": {"list": {"i": ["1", "1", "1", "1"]}}, "explicit_paddings": {"list": {}}, "T": {"type": "DT_FLOAT"}, "_input_shapes": {"list": {"shape": [{"dim": [{"size": "-23"}, {"size": "14"}, {"size": "28"}, {"size": "512"}]}, {"dim": [{"size": "1"}, {"size": "1"}, {"size": "512"}, {"size": "256"}]}]}}}}, {"name": "PartitionedCall/model_13/tf.math.sigmoid_19/Sigmoid", "op": "Sigmoid", "input": ["PartitionedCall/model_13/tf.math.add_24/Add"], "attr": {"_input_shapes": {"list": {"shape": [{"dim": [{"size": "-23"}, {"size": "14"}, {"size": "28"}, {"size": "256"}]}]}}, "T": {"type": "DT_FLOAT"}}}, {"name": "PartitionedCall/model_13/tf.math.multiply_69/Mul", "op": "Mul", "input": ["PartitionedCall/model_13/tf.math.add_24/Add", "PartitionedCall/model_13/tf.math.sigmoid_19/Sigmoid"], "attr": {"T": {"type": "DT_FLOAT"}}}, {"name": "PartitionedCall/model_13/tf.compat.v1.pad_4/Pad", "op": "Pad", "input": ["PartitionedCall/model_13/tf.math.multiply_69/Mul", "12523"], "attr": {"T": {"type": "DT_FLOAT"}, "Tpaddings": {"type": "DT_INT32"}}}, {"name": "PartitionedCall/model_13/tf.math.add_25/Add", "op": "_FusedConv2D", "input": ["PartitionedCall/model_13/tf.compat.v1.pad_4/Pad", "12525", "12527"], "device": "/device:CPU:0", "attr": {"T": {"type": "DT_FLOAT"}, "padding": {"s": "VkFMSUQ="}, "fused_ops": {"list": {"s": ["Qmlhc0FkZA=="]}}, "num_host_args": {"i": "0"}, "leakyrelu_alpha": {"f": 0.2}, "dilations": {"list": {"i": ["1", "1", "1", "1"]}}, "explicit_paddings": {"list": {}}, "_input_shapes": {"list": {"shape": [{"dim": [{"size": "-23"}, {"size": "-54"}, {"size": "-55"}, {"size": "256"}]}, {"dim": [{"size": "3"}, {"size": "3"}, {"size": "256"}, {"size": "512"}]}]}}, "epsilon": {"f": 0.0}, "use_cudnn_on_gpu": {"b": true}, "data_format": {"s": "TkhXQw=="}, "filter_format": {"s": "SFdJTw=="}, "strides": {"list": {"i": ["1", "2", "2", "1"]}}, "TArgs": {"list": {"type": ["DT_FLOAT"]}}, "num_args": {"i": "1"}}}, {"name": "PartitionedCall/model_13/tf.math.sigmoid_20/Sigmoid", "op": "Sigmoid", "input": ["PartitionedCall/model_13/tf.math.add_25/Add"], "attr": {"T": {"type": "DT_FLOAT"}, "_input_shapes": {"list": {"shape": [{"dim": [{"size": "-23"}, {"size": "-56"}, {"size": "-57"}, {"size": "512"}]}]}}}}, {"name": "PartitionedCall/model_13/tf.math.multiply_72/Mul", "op": "Mul", "input": ["PartitionedCall/model_13/tf.math.add_25/Add", "PartitionedCall/model_13/tf.math.sigmoid_20/Sigmoid"], "attr": {"T": {"type": "DT_FLOAT"}}}, {"name": "PartitionedCall/model_13/tf.math.add_26/Add", "op": "_FusedConv2D", "input": ["PartitionedCall/model_13/tf.math.multiply_72/Mul", "12529", "12531"], "device": "/device:CPU:0", "attr": {"filter_format": {"s": "SFdJTw=="}, "num_host_args": {"i": "0"}, "dilations": {"list": {"i": ["1", "1", "1", "1"]}}, "TArgs": {"list": {"type": ["DT_FLOAT"]}}, "padding": {"s": "U0FNRQ=="}, "T": {"type": "DT_FLOAT"}, "leakyrelu_alpha": {"f": 0.2}, "data_format": {"s": "TkhXQw=="}, "num_args": {"i": "1"}, "use_cudnn_on_gpu": {"b": true}, "fused_ops": {"list": {"s": ["Qmlhc0FkZA=="]}}, "strides": {"list": {"i": ["1", "1", "1", "1"]}}, "explicit_paddings": {"list": {}}, "epsilon": {"f": 0.0}, "_input_shapes": {"list": {"shape": [{"dim": [{"size": "-23"}, {"size": "-56"}, {"size": "-57"}, {"size": "512"}]}, {"dim": [{"size": "1"}, {"size": "1"}, {"size": "512"}, {"size": "512"}]}]}}}}, {"name": "PartitionedCall/model_13/tf.math.sigmoid_21/Sigmoid", "op": "Sigmoid", "input": ["PartitionedCall/model_13/tf.math.add_26/Add"], "attr": {"T": {"type": "DT_FLOAT"}, "_input_shapes": {"list": {"shape": [{"dim": [{"size": "-23"}, {"size": "-56"}, {"size": "-57"}, {"size": "512"}]}]}}}}, {"name": "PartitionedCall/model_13/tf.math.multiply_75/Mul", "op": "Mul", "input": ["PartitionedCall/model_13/tf.math.add_26/Add", "PartitionedCall/model_13/tf.math.sigmoid_21/Sigmoid"], "attr": {"T": {"type": "DT_FLOAT"}}}, {"name": "PartitionedCall/model_13/tf.strided_slice_6/StridedSlice", "op": "StridedSlice", "input": ["PartitionedCall/model_13/tf.math.multiply_75/Mul", "12545", "12547", "PartitionedCall/model_13/tf.strided_slice_6/ones_like"], "attr": {"Index": {"type": "DT_INT64"}, "begin_mask": {"i": "15"}, "T": {"type": "DT_FLOAT"}, "shrink_axis_mask": {"i": "0"}, "ellipsis_mask": {"i": "0"}, "end_mask": {"i": "7"}, "new_axis_mask": {"i": "0"}}}, {"name": "PartitionedCall/model_13/tf.strided_slice_7/StridedSlice", "op": "StridedSlice", "input": ["PartitionedCall/model_13/tf.math.multiply_75/Mul", "12533", "12535", "PartitionedCall/model_13/tf.strided_slice_7/ones_like"], "attr": {"new_axis_mask": {"i": "0"}, "ellipsis_mask": {"i": "0"}, "shrink_axis_mask": {"i": "0"}, "Index": {"type": "DT_INT64"}, "begin_mask": {"i": "7"}, "T": {"type": "DT_FLOAT"}, "end_mask": {"i": "7"}}}, {"name": "PartitionedCall/model_13/tf.math.add_27/Add", "op": "_FusedConv2D", "input": ["PartitionedCall/model_13/tf.strided_slice_7/StridedSlice", "12537", "12539"], "device": "/device:CPU:0", "attr": {"data_format": {"s": "TkhXQw=="}, "dilations": {"list": {"i": ["1", "1", "1", "1"]}}, "T": {"type": "DT_FLOAT"}, "padding": {"s": "U0FNRQ=="}, "filter_format": {"s": "SFdJTw=="}, "_input_shapes": {"list": {"shape": [{"dim": [{"size": "-23"}, {"size": "7"}, {"size": "14"}, {"size": "256"}]}, {"dim": [{"size": "3"}, {"size": "3"}, {"size": "256"}, {"size": "256"}]}]}}, "use_cudnn_on_gpu": {"b": true}, "explicit_paddings": {"list": {}}, "num_args": {"i": "1"}, "num_host_args": {"i": "0"}, "strides": {"list": {"i": ["1", "1", "1", "1"]}}, "TArgs": {"list": {"type": ["DT_FLOAT"]}}, "fused_ops": {"list": {"s": ["Qmlhc0FkZA=="]}}, "epsilon": {"f": 0.0}, "leakyrelu_alpha": {"f": 0.2}}}, {"name": "PartitionedCall/model_13/tf.math.sigmoid_22/Sigmoid", "op": "Sigmoid", "input": ["PartitionedCall/model_13/tf.math.add_27/Add"], "attr": {"_input_shapes": {"list": {"shape": [{"dim": [{"size": "-23"}, {"size": "7"}, {"size": "14"}, {"size": "256"}]}]}}, "T": {"type": "DT_FLOAT"}}}, {"name": "PartitionedCall/model_13/tf.math.multiply_78/Mul", "op": "Mul", "input": ["PartitionedCall/model_13/tf.math.add_27/Add", "PartitionedCall/model_13/tf.math.sigmoid_22/Sigmoid"], "attr": {"T": {"type": "DT_FLOAT"}}}, {"name": "PartitionedCall/model_13/tf.math.add_28/Add", "op": "_FusedConv2D", "input": ["PartitionedCall/model_13/tf.math.multiply_78/Mul", "12541", "12543"], "device": "/device:CPU:0", "attr": {"strides": {"list": {"i": ["1", "1", "1", "1"]}}, "use_cudnn_on_gpu": {"b": true}, "data_format": {"s": "TkhXQw=="}, "epsilon": {"f": 0.0}, "T": {"type": "DT_FLOAT"}, "padding": {"s": "U0FNRQ=="}, "_input_shapes": {"list": {"shape": [{"dim": [{"size": "-23"}, {"size": "7"}, {"size": "14"}, {"size": "256"}]}, {"dim": [{"size": "3"}, {"size": "3"}, {"size": "256"}, {"size": "256"}]}]}}, "TArgs": {"list": {"type": ["DT_FLOAT"]}}, "num_host_args": {"i": "0"}, "leakyrelu_alpha": {"f": 0.2}, "filter_format": {"s": "SFdJTw=="}, "explicit_paddings": {"list": {}}, "fused_ops": {"list": {"s": ["Qmlhc0FkZA=="]}}, "dilations": {"list": {"i": ["1", "1", "1", "1"]}}, "num_args": {"i": "1"}}}, {"name": "PartitionedCall/model_13/tf.math.sigmoid_23/Sigmoid", "op": "Sigmoid", "input": ["PartitionedCall/model_13/tf.math.add_28/Add"], "attr": {"_input_shapes": {"list": {"shape": [{"dim": [{"size": "-23"}, {"size": "7"}, {"size": "14"}, {"size": "256"}]}]}}, "T": {"type": "DT_FLOAT"}}}, {"name": "PartitionedCall/model_13/tf.math.multiply_81/Mul", "op": "Mul", "input": ["PartitionedCall/model_13/tf.math.add_28/Add", "PartitionedCall/model_13/tf.math.sigmoid_23/Sigmoid"], "attr": {"T": {"type": "DT_FLOAT"}}}, {"name": "PartitionedCall/model_13/tf.math.add_29/Add", "op": "AddV2", "input": ["PartitionedCall/model_13/tf.strided_slice_7/StridedSlice", "PartitionedCall/model_13/tf.math.multiply_81/Mul"], "attr": {"T": {"type": "DT_FLOAT"}}}, {"name": "PartitionedCall/model_13/tf.concat_3/concat", "op": "ConcatV2", "input": ["PartitionedCall/model_13/tf.strided_slice_6/StridedSlice", "PartitionedCall/model_13/tf.strided_slice_7/StridedSlice", "PartitionedCall/model_13/tf.math.add_29/Add", "PartitionedCall/model_13/tf.concat_3/concat/axis"], "attr": {"N": {"i": "3"}, "T": {"type": "DT_FLOAT"}, "Tidx": {"type": "DT_INT32"}}}, {"name": "PartitionedCall/model_13/tf.math.add_30/Add", "op": "_FusedConv2D", "input": ["PartitionedCall/model_13/tf.concat_3/concat", "12549", "12551"], "device": "/device:CPU:0", "attr": {"explicit_paddings": {"list": {}}, "T": {"type": "DT_FLOAT"}, "data_format": {"s": "TkhXQw=="}, "use_cudnn_on_gpu": {"b": true}, "num_args": {"i": "1"}, "strides": {"list": {"i": ["1", "1", "1", "1"]}}, "dilations": {"list": {"i": ["1", "1", "1", "1"]}}, "num_host_args": {"i": "0"}, "epsilon": {"f": 0.0}, "TArgs": {"list": {"type": ["DT_FLOAT"]}}, "filter_format": {"s": "SFdJTw=="}, "padding": {"s": "U0FNRQ=="}, "fused_ops": {"list": {"s": ["Qmlhc0FkZA=="]}}, "_input_shapes": {"list": {"shape": [{"dim": [{"size": "-23"}, {"size": "7"}, {"size": "14"}, {"size": "768"}]}, {"dim": [{"size": "1"}, {"size": "1"}, {"size": "768"}, {"size": "512"}]}]}}, "leakyrelu_alpha": {"f": 0.2}}}, {"name": "PartitionedCall/model_13/tf.math.sigmoid_24/Sigmoid", "op": "Sigmoid", "input": ["PartitionedCall/model_13/tf.math.add_30/Add"], "attr": {"T": {"type": "DT_FLOAT"}, "_input_shapes": {"list": {"shape": [{"dim": [{"size": "-23"}, {"size": "7"}, {"size": "14"}, {"size": "512"}]}]}}}}, {"name": "PartitionedCall/model_13/tf.math.multiply_86/Mul", "op": "Mul", "input": ["PartitionedCall/model_13/tf.math.add_30/Add", "PartitionedCall/model_13/tf.math.sigmoid_24/Sigmoid"], "attr": {"T": {"type": "DT_FLOAT"}}}, {"name": "PartitionedCall/model_13/tf.math.add_31/Add", "op": "_FusedConv2D", "input": ["PartitionedCall/model_13/tf.math.multiply_86/Mul", "12553", "12555"], "device": "/device:CPU:0", "attr": {"fused_ops": {"list": {"s": ["Qmlhc0FkZA=="]}}, "filter_format": {"s": "SFdJTw=="}, "use_cudnn_on_gpu": {"b": true}, "padding": {"s": "U0FNRQ=="}, "leakyrelu_alpha": {"f": 0.2}, "explicit_paddings": {"list": {}}, "strides": {"list": {"i": ["1", "1", "1", "1"]}}, "T": {"type": "DT_FLOAT"}, "epsilon": {"f": 0.0}, "dilations": {"list": {"i": ["1", "1", "1", "1"]}}, "data_format": {"s": "TkhXQw=="}, "TArgs": {"list": {"type": ["DT_FLOAT"]}}, "_input_shapes": {"list": {"shape": [{"dim": [{"size": "-23"}, {"size": "7"}, {"size": "14"}, {"size": "512"}]}, {"dim": [{"size": "1"}, {"size": "1"}, {"size": "512"}, {"size": "256"}]}]}}, "num_args": {"i": "1"}, "num_host_args": {"i": "0"}}}, {"name": "PartitionedCall/model_13/tf.math.sigmoid_25/Sigmoid", "op": "Sigmoid", "input": ["PartitionedCall/model_13/tf.math.add_31/Add"], "attr": {"_input_shapes": {"list": {"shape": [{"dim": [{"size": "-23"}, {"size": "7"}, {"size": "14"}, {"size": "256"}]}]}}, "T": {"type": "DT_FLOAT"}}}, {"name": "PartitionedCall/model_13/tf.math.multiply_89/Mul", "op": "Mul", "input": ["PartitionedCall/model_13/tf.math.add_31/Add", "PartitionedCall/model_13/tf.math.sigmoid_25/Sigmoid"], "attr": {"T": {"type": "DT_FLOAT"}}}, {"name": "PartitionedCall/model_13/tf.compat.v1.nn.pool/max_pool", "op": "MaxPool", "input": ["PartitionedCall/model_13/tf.math.multiply_89/Mul"], "attr": {"T": {"type": "DT_FLOAT"}, "explicit_paddings": {"list": {}}, "ksize": {"list": {"i": ["1", "5", "5", "1"]}}, "padding": {"s": "U0FNRQ=="}, "data_format": {"s": "TkhXQw=="}, "strides": {"list": {"i": ["1", "1", "1", "1"]}}}}, {"name": "PartitionedCall/model_13/tf.compat.v1.nn.pool_1/max_pool", "op": "MaxPool", "input": ["PartitionedCall/model_13/tf.compat.v1.nn.pool/max_pool"], "attr": {"T": {"type": "DT_FLOAT"}, "explicit_paddings": {"list": {}}, "strides": {"list": {"i": ["1", "1", "1", "1"]}}, "ksize": {"list": {"i": ["1", "5", "5", "1"]}}, "data_format": {"s": "TkhXQw=="}, "padding": {"s": "U0FNRQ=="}}}, {"name": "PartitionedCall/model_13/tf.compat.v1.nn.pool_2/max_pool", "op": "MaxPool", "input": ["PartitionedCall/model_13/tf.compat.v1.nn.pool_1/max_pool"], "attr": {"padding": {"s": "U0FNRQ=="}, "T": {"type": "DT_FLOAT"}, "strides": {"list": {"i": ["1", "1", "1", "1"]}}, "explicit_paddings": {"list": {}}, "data_format": {"s": "TkhXQw=="}, "ksize": {"list": {"i": ["1", "5", "5", "1"]}}}}, {"name": "PartitionedCall/model_13/tf.concat_4/concat", "op": "ConcatV2", "input": ["PartitionedCall/model_13/tf.math.multiply_89/Mul", "PartitionedCall/model_13/tf.compat.v1.nn.pool/max_pool", "PartitionedCall/model_13/tf.compat.v1.nn.pool_1/max_pool", "PartitionedCall/model_13/tf.compat.v1.nn.pool_2/max_pool", "PartitionedCall/model_13/tf.concat_4/concat/axis"], "attr": {"N": {"i": "4"}, "Tidx": {"type": "DT_INT32"}, "T": {"type": "DT_FLOAT"}}}, {"name": "PartitionedCall/model_13/tf.math.add_32/Add", "op": "_FusedConv2D", "input": ["PartitionedCall/model_13/tf.concat_4/concat", "12557", "12559"], "device": "/device:CPU:0", "attr": {"TArgs": {"list": {"type": ["DT_FLOAT"]}}, "epsilon": {"f": 0.0}, "padding": {"s": "U0FNRQ=="}, "T": {"type": "DT_FLOAT"}, "fused_ops": {"list": {"s": ["Qmlhc0FkZA=="]}}, "strides": {"list": {"i": ["1", "1", "1", "1"]}}, "dilations": {"list": {"i": ["1", "1", "1", "1"]}}, "leakyrelu_alpha": {"f": 0.2}, "num_args": {"i": "1"}, "num_host_args": {"i": "0"}, "use_cudnn_on_gpu": {"b": true}, "data_format": {"s": "TkhXQw=="}, "_input_shapes": {"list": {"shape": [{"dim": [{"size": "-23"}, {"size": "7"}, {"size": "14"}, {"size": "1024"}]}, {"dim": [{"size": "1"}, {"size": "1"}, {"size": "1024"}, {"size": "512"}]}]}}, "explicit_paddings": {"list": {}}, "filter_format": {"s": "SFdJTw=="}}}, {"name": "PartitionedCall/model_13/tf.math.sigmoid_26/Sigmoid", "op": "Sigmoid", "input": ["PartitionedCall/model_13/tf.math.add_32/Add"], "attr": {"_input_shapes": {"list": {"shape": [{"dim": [{"size": "-23"}, {"size": "7"}, {"size": "14"}, {"size": "512"}]}]}}, "T": {"type": "DT_FLOAT"}}}, {"name": "PartitionedCall/model_13/tf.math.multiply_92/Mul", "op": "Mul", "input": ["PartitionedCall/model_13/tf.math.add_32/Add", "PartitionedCall/model_13/tf.math.sigmoid_26/Sigmoid"], "attr": {"T": {"type": "DT_FLOAT"}}}, {"name": "PartitionedCall/model_13/tf.compat.v1.image.resize_nearest_neighbor/ResizeNearestNeighbor", "op": "ResizeNearestNeighbor", "input": ["PartitionedCall/model_13/tf.math.multiply_92/Mul", "PartitionedCall/model_13/tf.compat.v1.image.resize_nearest_neighbor/ResizeNearestNeighbor/size"], "attr": {"T": {"type": "DT_FLOAT"}, "align_corners": {"b": false}, "half_pixel_centers": {"b": false}}}, {"name": "PartitionedCall/model_13/tf.concat_5/concat", "op": "ConcatV2", "input": ["PartitionedCall/model_13/tf.compat.v1.image.resize_nearest_neighbor/ResizeNearestNeighbor", "PartitionedCall/model_13/tf.math.multiply_69/Mul", "PartitionedCall/model_13/tf.concat_5/concat/axis"], "attr": {"N": {"i": "2"}, "Tidx": {"type": "DT_INT32"}, "T": {"type": "DT_FLOAT"}}}, {"name": "PartitionedCall/model_13/tf.math.add_33/Add", "op": "_FusedConv2D", "input": ["PartitionedCall/model_13/tf.concat_5/concat", "12561", "12563"], "device": "/device:CPU:0", "attr": {"fused_ops": {"list": {"s": ["Qmlhc0FkZA=="]}}, "padding": {"s": "U0FNRQ=="}, "num_args": {"i": "1"}, "T": {"type": "DT_FLOAT"}, "explicit_paddings": {"list": {}}, "num_host_args": {"i": "0"}, "use_cudnn_on_gpu": {"b": true}, "dilations": {"list": {"i": ["1", "1", "1", "1"]}}, "_input_shapes": {"list": {"shape": [{"dim": [{"size": "-23"}, {"size": "14"}, {"size": "28"}, {"size": "768"}]}, {"dim": [{"size": "1"}, {"size": "1"}, {"size": "768"}, {"size": "256"}]}]}}, "data_format": {"s": "TkhXQw=="}, "filter_format": {"s": "SFdJTw=="}, "leakyrelu_alpha": {"f": 0.2}, "TArgs": {"list": {"type": ["DT_FLOAT"]}}, "strides": {"list": {"i": ["1", "1", "1", "1"]}}, "epsilon": {"f": 0.0}}}, {"name": "PartitionedCall/model_13/tf.math.sigmoid_27/Sigmoid", "op": "Sigmoid", "input": ["PartitionedCall/model_13/tf.math.add_33/Add"], "attr": {"_input_shapes": {"list": {"shape": [{"dim": [{"size": "-23"}, {"size": "14"}, {"size": "28"}, {"size": "256"}]}]}}, "T": {"type": "DT_FLOAT"}}}, {"name": "PartitionedCall/model_13/tf.math.multiply_95/Mul", "op": "Mul", "input": ["PartitionedCall/model_13/tf.math.add_33/Add", "PartitionedCall/model_13/tf.math.sigmoid_27/Sigmoid"], "attr": {"T": {"type": "DT_FLOAT"}}}, {"name": "PartitionedCall/model_13/tf.strided_slice_8/StridedSlice", "op": "StridedSlice", "input": ["PartitionedCall/model_13/tf.math.multiply_95/Mul", "12577", "12579", "PartitionedCall/model_13/tf.strided_slice_8/ones_like"], "attr": {"Index": {"type": "DT_INT64"}, "end_mask": {"i": "7"}, "new_axis_mask": {"i": "0"}, "begin_mask": {"i": "15"}, "T": {"type": "DT_FLOAT"}, "ellipsis_mask": {"i": "0"}, "shrink_axis_mask": {"i": "0"}}}, {"name": "PartitionedCall/model_13/tf.strided_slice_9/StridedSlice", "op": "StridedSlice", "input": ["PartitionedCall/model_13/tf.math.multiply_95/Mul", "12565", "12567", "PartitionedCall/model_13/tf.strided_slice_9/ones_like"], "attr": {"Index": {"type": "DT_INT64"}, "begin_mask": {"i": "7"}, "T": {"type": "DT_FLOAT"}, "new_axis_mask": {"i": "0"}, "ellipsis_mask": {"i": "0"}, "end_mask": {"i": "7"}, "shrink_axis_mask": {"i": "0"}}}, {"name": "PartitionedCall/model_13/tf.math.add_34/Add", "op": "_FusedConv2D", "input": ["PartitionedCall/model_13/tf.strided_slice_9/StridedSlice", "12569", "12571"], "device": "/device:CPU:0", "attr": {"filter_format": {"s": "SFdJTw=="}, "leakyrelu_alpha": {"f": 0.2}, "explicit_paddings": {"list": {}}, "use_cudnn_on_gpu": {"b": true}, "fused_ops": {"list": {"s": ["Qmlhc0FkZA=="]}}, "strides": {"list": {"i": ["1", "1", "1", "1"]}}, "T": {"type": "DT_FLOAT"}, "epsilon": {"f": 0.0}, "num_host_args": {"i": "0"}, "TArgs": {"list": {"type": ["DT_FLOAT"]}}, "padding": {"s": "U0FNRQ=="}, "num_args": {"i": "1"}, "_input_shapes": {"list": {"shape": [{"dim": [{"size": "-27"}, {"size": "14"}, {"size": "28"}, {"size": "128"}]}, {"dim": [{"size": "3"}, {"size": "3"}, {"size": "128"}, {"size": "128"}]}]}}, "data_format": {"s": "TkhXQw=="}, "dilations": {"list": {"i": ["1", "1", "1", "1"]}}}}, {"name": "PartitionedCall/model_13/tf.math.sigmoid_28/Sigmoid", "op": "Sigmoid", "input": ["PartitionedCall/model_13/tf.math.add_34/Add"], "attr": {"T": {"type": "DT_FLOAT"}, "_input_shapes": {"list": {"shape": [{"dim": [{"size": "-27"}, {"size": "14"}, {"size": "28"}, {"size": "128"}]}]}}}}, {"name": "PartitionedCall/model_13/tf.math.multiply_98/Mul", "op": "Mul", "input": ["PartitionedCall/model_13/tf.math.add_34/Add", "PartitionedCall/model_13/tf.math.sigmoid_28/Sigmoid"], "attr": {"T": {"type": "DT_FLOAT"}}}, {"name": "PartitionedCall/model_13/tf.math.add_35/Add", "op": "_FusedConv2D", "input": ["PartitionedCall/model_13/tf.math.multiply_98/Mul", "12573", "12575"], "device": "/device:CPU:0", "attr": {"explicit_paddings": {"list": {}}, "epsilon": {"f": 0.0}, "T": {"type": "DT_FLOAT"}, "num_args": {"i": "1"}, "_input_shapes": {"list": {"shape": [{"dim": [{"size": "-27"}, {"size": "14"}, {"size": "28"}, {"size": "128"}]}, {"dim": [{"size": "3"}, {"size": "3"}, {"size": "128"}, {"size": "128"}]}]}}, "fused_ops": {"list": {"s": ["Qmlhc0FkZA=="]}}, "dilations": {"list": {"i": ["1", "1", "1", "1"]}}, "filter_format": {"s": "SFdJTw=="}, "leakyrelu_alpha": {"f": 0.2}, "strides": {"list": {"i": ["1", "1", "1", "1"]}}, "data_format": {"s": "TkhXQw=="}, "TArgs": {"list": {"type": ["DT_FLOAT"]}}, "padding": {"s": "U0FNRQ=="}, "use_cudnn_on_gpu": {"b": true}, "num_host_args": {"i": "0"}}}, {"name": "PartitionedCall/model_13/tf.math.sigmoid_29/Sigmoid", "op": "Sigmoid", "input": ["PartitionedCall/model_13/tf.math.add_35/Add"], "attr": {"_input_shapes": {"list": {"shape": [{"dim": [{"size": "-27"}, {"size": "14"}, {"size": "28"}, {"size": "128"}]}]}}, "T": {"type": "DT_FLOAT"}}}, {"name": "PartitionedCall/model_13/tf.math.multiply_101/Mul", "op": "Mul", "input": ["PartitionedCall/model_13/tf.math.add_35/Add", "PartitionedCall/model_13/tf.math.sigmoid_29/Sigmoid"], "attr": {"T": {"type": "DT_FLOAT"}}}, {"name": "PartitionedCall/model_13/tf.concat_6/concat", "op": "ConcatV2", "input": ["PartitionedCall/model_13/tf.strided_slice_8/StridedSlice", "PartitionedCall/model_13/tf.strided_slice_9/StridedSlice", "PartitionedCall/model_13/tf.math.multiply_101/Mul", "PartitionedCall/model_13/tf.concat_6/concat/axis"], "attr": {"N": {"i": "3"}, "Tidx": {"type": "DT_INT32"}, "T": {"type": "DT_FLOAT"}}}, {"name": "PartitionedCall/model_13/tf.math.add_36/Add", "op": "_FusedConv2D", "input": ["PartitionedCall/model_13/tf.concat_6/concat", "12581", "12583"], "device": "/device:CPU:0", "attr": {"leakyrelu_alpha": {"f": 0.2}, "_input_shapes": {"list": {"shape": [{"dim": [{"size": "-27"}, {"size": "14"}, {"size": "28"}, {"size": "384"}]}, {"dim": [{"size": "1"}, {"size": "1"}, {"size": "384"}, {"size": "256"}]}]}}, "explicit_paddings": {"list": {}}, "num_args": {"i": "1"}, "use_cudnn_on_gpu": {"b": true}, "padding": {"s": "U0FNRQ=="}, "data_format": {"s": "TkhXQw=="}, "filter_format": {"s": "SFdJTw=="}, "num_host_args": {"i": "0"}, "TArgs": {"list": {"type": ["DT_FLOAT"]}}, "dilations": {"list": {"i": ["1", "1", "1", "1"]}}, "epsilon": {"f": 0.0}, "strides": {"list": {"i": ["1", "1", "1", "1"]}}, "fused_ops": {"list": {"s": ["Qmlhc0FkZA=="]}}, "T": {"type": "DT_FLOAT"}}}, {"name": "PartitionedCall/model_13/tf.math.sigmoid_30/Sigmoid", "op": "Sigmoid", "input": ["PartitionedCall/model_13/tf.math.add_36/Add"], "attr": {"T": {"type": "DT_FLOAT"}, "_input_shapes": {"list": {"shape": [{"dim": [{"size": "-27"}, {"size": "14"}, {"size": "28"}, {"size": "256"}]}]}}}}, {"name": "PartitionedCall/model_13/tf.math.multiply_104/Mul", "op": "Mul", "input": ["PartitionedCall/model_13/tf.math.add_36/Add", "PartitionedCall/model_13/tf.math.sigmoid_30/Sigmoid"], "attr": {"T": {"type": "DT_FLOAT"}}}, {"name": "PartitionedCall/model_13/tf.compat.v1.image.resize_nearest_neighbor_1/ResizeNearestNeighbor", "op": "ResizeNearestNeighbor", "input": ["PartitionedCall/model_13/tf.math.multiply_104/Mul", "PartitionedCall/model_13/tf.compat.v1.image.resize_nearest_neighbor_1/ResizeNearestNeighbor/size"], "attr": {"half_pixel_centers": {"b": false}, "T": {"type": "DT_FLOAT"}, "align_corners": {"b": false}}}, {"name": "PartitionedCall/model_13/tf.concat_7/concat", "op": "ConcatV2", "input": ["PartitionedCall/model_13/tf.compat.v1.image.resize_nearest_neighbor_1/ResizeNearestNeighbor", "PartitionedCall/model_13/tf.math.multiply_44/Mul", "PartitionedCall/model_13/tf.concat_7/concat/axis"], "attr": {"N": {"i": "2"}, "T": {"type": "DT_FLOAT"}, "Tidx": {"type": "DT_INT32"}}}, {"name": "PartitionedCall/model_13/tf.math.add_37/Add", "op": "_FusedConv2D", "input": ["PartitionedCall/model_13/tf.concat_7/concat", "12585", "12587"], "device": "/device:CPU:0", "attr": {"T": {"type": "DT_FLOAT"}, "TArgs": {"list": {"type": ["DT_FLOAT"]}}, "strides": {"list": {"i": ["1", "1", "1", "1"]}}, "epsilon": {"f": 0.0}, "use_cudnn_on_gpu": {"b": true}, "filter_format": {"s": "SFdJTw=="}, "dilations": {"list": {"i": ["1", "1", "1", "1"]}}, "padding": {"s": "U0FNRQ=="}, "num_host_args": {"i": "0"}, "_input_shapes": {"list": {"shape": [{"dim": [{"size": "-27"}, {"size": "28"}, {"size": "56"}, {"size": "384"}]}, {"dim": [{"size": "1"}, {"size": "1"}, {"size": "384"}, {"size": "128"}]}]}}, "fused_ops": {"list": {"s": ["Qmlhc0FkZA=="]}}, "num_args": {"i": "1"}, "leakyrelu_alpha": {"f": 0.2}, "data_format": {"s": "TkhXQw=="}, "explicit_paddings": {"list": {}}}}, {"name": "PartitionedCall/model_13/tf.math.sigmoid_31/Sigmoid", "op": "Sigmoid", "input": ["PartitionedCall/model_13/tf.math.add_37/Add"], "attr": {"_input_shapes": {"list": {"shape": [{"dim": [{"size": "-27"}, {"size": "28"}, {"size": "56"}, {"size": "128"}]}]}}, "T": {"type": "DT_FLOAT"}}}, {"name": "PartitionedCall/model_13/tf.math.multiply_107/Mul", "op": "Mul", "input": ["PartitionedCall/model_13/tf.math.add_37/Add", "PartitionedCall/model_13/tf.math.sigmoid_31/Sigmoid"], "attr": {"T": {"type": "DT_FLOAT"}}}, {"name": "PartitionedCall/model_13/tf.strided_slice_10/StridedSlice", "op": "StridedSlice", "input": ["PartitionedCall/model_13/tf.math.multiply_107/Mul", "12601", "12603", "PartitionedCall/model_13/tf.strided_slice_10/ones_like"], "attr": {"new_axis_mask": {"i": "0"}, "T": {"type": "DT_FLOAT"}, "begin_mask": {"i": "15"}, "end_mask": {"i": "7"}, "ellipsis_mask": {"i": "0"}, "shrink_axis_mask": {"i": "0"}, "Index": {"type": "DT_INT64"}}}, {"name": "PartitionedCall/model_13/tf.strided_slice_11/StridedSlice", "op": "StridedSlice", "input": ["PartitionedCall/model_13/tf.math.multiply_107/Mul", "12589", "12591", "PartitionedCall/model_13/tf.strided_slice_11/ones_like"], "attr": {"ellipsis_mask": {"i": "0"}, "begin_mask": {"i": "7"}, "shrink_axis_mask": {"i": "0"}, "T": {"type": "DT_FLOAT"}, "end_mask": {"i": "7"}, "Index": {"type": "DT_INT64"}, "new_axis_mask": {"i": "0"}}}, {"name": "PartitionedCall/model_13/tf.math.add_38/Add", "op": "_FusedConv2D", "input": ["PartitionedCall/model_13/tf.strided_slice_11/StridedSlice", "12593", "12595"], "device": "/device:CPU:0", "attr": {"data_format": {"s": "TkhXQw=="}, "fused_ops": {"list": {"s": ["Qmlhc0FkZA=="]}}, "num_host_args": {"i": "0"}, "explicit_paddings": {"list": {}}, "epsilon": {"f": 0.0}, "padding": {"s": "U0FNRQ=="}, "filter_format": {"s": "SFdJTw=="}, "strides": {"list": {"i": ["1", "1", "1", "1"]}}, "_input_shapes": {"list": {"shape": [{"dim": [{"size": "-27"}, {"size": "28"}, {"size": "56"}, {"size": "64"}]}, {"dim": [{"size": "3"}, {"size": "3"}, {"size": "64"}, {"size": "64"}]}]}}, "TArgs": {"list": {"type": ["DT_FLOAT"]}}, "dilations": {"list": {"i": ["1", "1", "1", "1"]}}, "num_args": {"i": "1"}, "leakyrelu_alpha": {"f": 0.2}, "use_cudnn_on_gpu": {"b": true}, "T": {"type": "DT_FLOAT"}}}, {"name": "PartitionedCall/model_13/tf.math.sigmoid_32/Sigmoid", "op": "Sigmoid", "input": ["PartitionedCall/model_13/tf.math.add_38/Add"], "attr": {"_input_shapes": {"list": {"shape": [{"dim": [{"size": "-27"}, {"size": "28"}, {"size": "56"}, {"size": "64"}]}]}}, "T": {"type": "DT_FLOAT"}}}, {"name": "PartitionedCall/model_13/tf.math.multiply_110/Mul", "op": "Mul", "input": ["PartitionedCall/model_13/tf.math.add_38/Add", "PartitionedCall/model_13/tf.math.sigmoid_32/Sigmoid"], "attr": {"T": {"type": "DT_FLOAT"}}}, {"name": "PartitionedCall/model_13/tf.math.add_39/Add", "op": "_FusedConv2D", "input": ["PartitionedCall/model_13/tf.math.multiply_110/Mul", "12597", "12599"], "device": "/device:CPU:0", "attr": {"_input_shapes": {"list": {"shape": [{"dim": [{"size": "-27"}, {"size": "28"}, {"size": "56"}, {"size": "64"}]}, {"dim": [{"size": "3"}, {"size": "3"}, {"size": "64"}, {"size": "64"}]}]}}, "explicit_paddings": {"list": {}}, "leakyrelu_alpha": {"f": 0.2}, "dilations": {"list": {"i": ["1", "1", "1", "1"]}}, "T": {"type": "DT_FLOAT"}, "data_format": {"s": "TkhXQw=="}, "TArgs": {"list": {"type": ["DT_FLOAT"]}}, "strides": {"list": {"i": ["1", "1", "1", "1"]}}, "fused_ops": {"list": {"s": ["Qmlhc0FkZA=="]}}, "num_host_args": {"i": "0"}, "padding": {"s": "U0FNRQ=="}, "filter_format": {"s": "SFdJTw=="}, "use_cudnn_on_gpu": {"b": true}, "num_args": {"i": "1"}, "epsilon": {"f": 0.0}}}, {"name": "PartitionedCall/model_13/tf.math.sigmoid_33/Sigmoid", "op": "Sigmoid", "input": ["PartitionedCall/model_13/tf.math.add_39/Add"], "attr": {"_input_shapes": {"list": {"shape": [{"dim": [{"size": "-27"}, {"size": "28"}, {"size": "56"}, {"size": "64"}]}]}}, "T": {"type": "DT_FLOAT"}}}, {"name": "PartitionedCall/model_13/tf.math.multiply_113/Mul", "op": "Mul", "input": ["PartitionedCall/model_13/tf.math.add_39/Add", "PartitionedCall/model_13/tf.math.sigmoid_33/Sigmoid"], "attr": {"T": {"type": "DT_FLOAT"}}}, {"name": "PartitionedCall/model_13/tf.concat_8/concat", "op": "ConcatV2", "input": ["PartitionedCall/model_13/tf.strided_slice_10/StridedSlice", "PartitionedCall/model_13/tf.strided_slice_11/StridedSlice", "PartitionedCall/model_13/tf.math.multiply_113/Mul", "PartitionedCall/model_13/tf.concat_8/concat/axis"], "attr": {"N": {"i": "3"}, "T": {"type": "DT_FLOAT"}, "Tidx": {"type": "DT_INT32"}}}, {"name": "PartitionedCall/model_13/tf.math.add_40/Add", "op": "_FusedConv2D", "input": ["PartitionedCall/model_13/tf.concat_8/concat", "12605", "12607"], "device": "/device:CPU:0", "attr": {"strides": {"list": {"i": ["1", "1", "1", "1"]}}, "dilations": {"list": {"i": ["1", "1", "1", "1"]}}, "TArgs": {"list": {"type": ["DT_FLOAT"]}}, "padding": {"s": "U0FNRQ=="}, "explicit_paddings": {"list": {}}, "data_format": {"s": "TkhXQw=="}, "fused_ops": {"list": {"s": ["Qmlhc0FkZA=="]}}, "leakyrelu_alpha": {"f": 0.2}, "filter_format": {"s": "SFdJTw=="}, "T": {"type": "DT_FLOAT"}, "num_host_args": {"i": "0"}, "epsilon": {"f": 0.0}, "use_cudnn_on_gpu": {"b": true}, "num_args": {"i": "1"}, "_input_shapes": {"list": {"shape": [{"dim": [{"size": "-27"}, {"size": "28"}, {"size": "56"}, {"size": "192"}]}, {"dim": [{"size": "1"}, {"size": "1"}, {"size": "192"}, {"size": "128"}]}]}}}}, {"name": "PartitionedCall/model_13/tf.math.sigmoid_34/Sigmoid", "op": "Sigmoid", "input": ["PartitionedCall/model_13/tf.math.add_40/Add"], "attr": {"T": {"type": "DT_FLOAT"}, "_input_shapes": {"list": {"shape": [{"dim": [{"size": "-27"}, {"size": "28"}, {"size": "56"}, {"size": "128"}]}]}}}}, {"name": "PartitionedCall/model_13/tf.math.multiply_116/Mul", "op": "Mul", "input": ["PartitionedCall/model_13/tf.math.add_40/Add", "PartitionedCall/model_13/tf.math.sigmoid_34/Sigmoid"], "attr": {"T": {"type": "DT_FLOAT"}}}, {"name": "PartitionedCall/model_13/tf.math.add_42/Add", "op": "_FusedConv2D", "input": ["PartitionedCall/model_13/tf.math.multiply_116/Mul", "12679", "12691"], "device": "/device:CPU:0", "attr": {"num_args": {"i": "1"}, "leakyrelu_alpha": {"f": 0.2}, "use_cudnn_on_gpu": {"b": true}, "epsilon": {"f": 0.0}, "num_host_args": {"i": "0"}, "T": {"type": "DT_FLOAT"}, "dilations": {"list": {"i": ["1", "1", "1", "1"]}}, "strides": {"list": {"i": ["1", "1", "1", "1"]}}, "explicit_paddings": {"list": {}}, "padding": {"s": "U0FNRQ=="}, "TArgs": {"list": {"type": ["DT_FLOAT"]}}, "data_format": {"s": "TkhXQw=="}, "_input_shapes": {"list": {"shape": [{"dim": [{"size": "-27"}, {"size": "28"}, {"size": "56"}, {"size": "128"}]}, {"dim": [{"size": "3"}, {"size": "3"}, {"size": "128"}, {"size": "64"}]}]}}, "filter_format": {"s": "SFdJTw=="}, "fused_ops": {"list": {"s": ["Qmlhc0FkZA=="]}}}}, {"name": "PartitionedCall/model_13/tf.math.add_43/Add", "op": "_FusedConv2D", "input": ["PartitionedCall/model_13/tf.math.multiply_116/Mul", "12677", "12689"], "device": "/device:CPU:0", "attr": {"use_cudnn_on_gpu": {"b": true}, "TArgs": {"list": {"type": ["DT_FLOAT"]}}, "padding": {"s": "U0FNRQ=="}, "strides": {"list": {"i": ["1", "1", "1", "1"]}}, "T": {"type": "DT_FLOAT"}, "explicit_paddings": {"list": {}}, "dilations": {"list": {"i": ["1", "1", "1", "1"]}}, "num_args": {"i": "1"}, "_input_shapes": {"list": {"shape": [{"dim": [{"size": "-27"}, {"size": "28"}, {"size": "56"}, {"size": "128"}]}, {"dim": [{"size": "3"}, {"size": "3"}, {"size": "128"}, {"size": "128"}]}]}}, "fused_ops": {"list": {"s": ["Qmlhc0FkZA=="]}}, "num_host_args": {"i": "0"}, "epsilon": {"f": 0.0}, "leakyrelu_alpha": {"f": 0.2}, "filter_format": {"s": "SFdJTw=="}, "data_format": {"s": "TkhXQw=="}}}, {"name": "PartitionedCall/model_13/tf.compat.v1.pad_5/Pad", "op": "Pad", "input": ["PartitionedCall/model_13/tf.math.multiply_116/Mul", "12609"], "attr": {"T": {"type": "DT_FLOAT"}, "Tpaddings": {"type": "DT_INT32"}}}, {"name": "PartitionedCall/model_13/tf.math.sigmoid_36/Sigmoid", "op": "Sigmoid", "input": ["PartitionedCall/model_13/tf.math.add_42/Add"], "attr": {"T": {"type": "DT_FLOAT"}, "_input_shapes": {"list": {"shape": [{"dim": [{"size": "-27"}, {"size": "28"}, {"size": "56"}, {"size": "64"}]}]}}}}, {"name": "PartitionedCall/model_13/tf.math.sigmoid_37/Sigmoid", "op": "Sigmoid", "input": ["PartitionedCall/model_13/tf.math.add_43/Add"], "attr": {"_input_shapes": {"list": {"shape": [{"dim": [{"size": "-27"}, {"size": "28"}, {"size": "56"}, {"size": "128"}]}]}}, "T": {"type": "DT_FLOAT"}}}, {"name": "PartitionedCall/model_13/tf.math.add_41/Add", "op": "_FusedConv2D", "input": ["PartitionedCall/model_13/tf.compat.v1.pad_5/Pad", "12611", "12613"], "device": "/device:CPU:0", "attr": {"T": {"type": "DT_FLOAT"}, "data_format": {"s": "TkhXQw=="}, "num_host_args": {"i": "0"}, "use_cudnn_on_gpu": {"b": true}, "epsilon": {"f": 0.0}, "strides": {"list": {"i": ["1", "2", "2", "1"]}}, "_input_shapes": {"list": {"shape": [{"dim": [{"size": "-27"}, {"size": "30"}, {"size": "58"}, {"size": "128"}]}, {"dim": [{"size": "3"}, {"size": "3"}, {"size": "128"}, {"size": "128"}]}]}}, "leakyrelu_alpha": {"f": 0.2}, "filter_format": {"s": "SFdJTw=="}, "fused_ops": {"list": {"s": ["Qmlhc0FkZA=="]}}, "explicit_paddings": {"list": {}}, "num_args": {"i": "1"}, "dilations": {"list": {"i": ["1", "1", "1", "1"]}}, "TArgs": {"list": {"type": ["DT_FLOAT"]}}, "padding": {"s": "VkFMSUQ="}}}, {"name": "PartitionedCall/model_13/tf.math.multiply_122/Mul", "op": "Mul", "input": ["PartitionedCall/model_13/tf.math.add_42/Add", "PartitionedCall/model_13/tf.math.sigmoid_36/Sigmoid"], "attr": {"T": {"type": "DT_FLOAT"}}}, {"name": "PartitionedCall/model_13/tf.math.multiply_125/Mul", "op": "Mul", "input": ["PartitionedCall/model_13/tf.math.add_43/Add", "PartitionedCall/model_13/tf.math.sigmoid_37/Sigmoid"], "attr": {"T": {"type": "DT_FLOAT"}}}, {"name": "PartitionedCall/model_13/tf.math.sigmoid_35/Sigmoid", "op": "Sigmoid", "input": ["PartitionedCall/model_13/tf.math.add_41/Add"], "attr": {"T": {"type": "DT_FLOAT"}, "_input_shapes": {"list": {"shape": [{"dim": [{"size": "-27"}, {"size": "14"}, {"size": "28"}, {"size": "128"}]}]}}}}, {"name": "PartitionedCall/model_13/tf.math.add_44/Add", "op": "_FusedConv2D", "input": ["PartitionedCall/model_13/tf.math.multiply_122/Mul", "12703", "12715"], "device": "/device:CPU:0", "attr": {"TArgs": {"list": {"type": ["DT_FLOAT"]}}, "filter_format": {"s": "SFdJTw=="}, "explicit_paddings": {"list": {}}, "epsilon": {"f": 0.0}, "leakyrelu_alpha": {"f": 0.2}, "num_args": {"i": "1"}, "num_host_args": {"i": "0"}, "strides": {"list": {"i": ["1", "1", "1", "1"]}}, "_input_shapes": {"list": {"shape": [{"dim": [{"size": "-27"}, {"size": "28"}, {"size": "56"}, {"size": "64"}]}, {"dim": [{"size": "3"}, {"size": "3"}, {"size": "64"}, {"size": "64"}]}]}}, "use_cudnn_on_gpu": {"b": true}, "data_format": {"s": "TkhXQw=="}, "padding": {"s": "U0FNRQ=="}, "T": {"type": "DT_FLOAT"}, "dilations": {"list": {"i": ["1", "1", "1", "1"]}}, "fused_ops": {"list": {"s": ["Qmlhc0FkZA=="]}}}}, {"name": "PartitionedCall/model_13/tf.math.add_45/Add", "op": "_FusedConv2D", "input": ["PartitionedCall/model_13/tf.math.multiply_125/Mul", "12701", "12713"], "device": "/device:CPU:0", "attr": {"epsilon": {"f": 0.0}, "padding": {"s": "U0FNRQ=="}, "use_cudnn_on_gpu": {"b": true}, "T": {"type": "DT_FLOAT"}, "data_format": {"s": "TkhXQw=="}, "fused_ops": {"list": {"s": ["Qmlhc0FkZA=="]}}, "_input_shapes": {"list": {"shape": [{"dim": [{"size": "-27"}, {"size": "28"}, {"size": "56"}, {"size": "128"}]}, {"dim": [{"size": "3"}, {"size": "3"}, {"size": "128"}, {"size": "128"}]}]}}, "filter_format": {"s": "SFdJTw=="}, "num_args": {"i": "1"}, "strides": {"list": {"i": ["1", "1", "1", "1"]}}, "explicit_paddings": {"list": {}}, "TArgs": {"list": {"type": ["DT_FLOAT"]}}, "dilations": {"list": {"i": ["1", "1", "1", "1"]}}, "leakyrelu_alpha": {"f": 0.2}, "num_host_args": {"i": "0"}}}, {"name": "PartitionedCall/model_13/tf.math.multiply_119/Mul", "op": "Mul", "input": ["PartitionedCall/model_13/tf.math.add_41/Add", "PartitionedCall/model_13/tf.math.sigmoid_35/Sigmoid"], "attr": {"T": {"type": "DT_FLOAT"}}}, {"name": "PartitionedCall/model_13/tf.math.sigmoid_38/Sigmoid", "op": "Sigmoid", "input": ["PartitionedCall/model_13/tf.math.add_44/Add"], "attr": {"T": {"type": "DT_FLOAT"}, "_input_shapes": {"list": {"shape": [{"dim": [{"size": "-27"}, {"size": "28"}, {"size": "56"}, {"size": "64"}]}]}}}}, {"name": "PartitionedCall/model_13/tf.math.sigmoid_39/Sigmoid", "op": "Sigmoid", "input": ["PartitionedCall/model_13/tf.math.add_45/Add"], "attr": {"_input_shapes": {"list": {"shape": [{"dim": [{"size": "-27"}, {"size": "28"}, {"size": "56"}, {"size": "128"}]}]}}, "T": {"type": "DT_FLOAT"}}}, {"name": "PartitionedCall/model_13/tf.concat_9/concat", "op": "ConcatV2", "input": ["PartitionedCall/model_13/tf.math.multiply_119/Mul", "PartitionedCall/model_13/tf.math.multiply_104/Mul", "PartitionedCall/model_13/tf.concat_9/concat/axis"], "attr": {"T": {"type": "DT_FLOAT"}, "N": {"i": "2"}, "Tidx": {"type": "DT_INT32"}}}, {"name": "PartitionedCall/model_13/tf.math.multiply_128/Mul", "op": "Mul", "input": ["PartitionedCall/model_13/tf.math.add_44/Add", "PartitionedCall/model_13/tf.math.sigmoid_38/Sigmoid"], "attr": {"T": {"type": "DT_FLOAT"}}}, {"name": "PartitionedCall/model_13/tf.math.multiply_131/Mul", "op": "Mul", "input": ["PartitionedCall/model_13/tf.math.add_45/Add", "PartitionedCall/model_13/tf.math.sigmoid_39/Sigmoid"], "attr": {"T": {"type": "DT_FLOAT"}}}, {"name": "PartitionedCall/model_13/tf.math.add_46/Add", "op": "_FusedConv2D", "input": ["PartitionedCall/model_13/tf.concat_9/concat", "12615", "12617"], "device": "/device:CPU:0", "attr": {"data_format": {"s": "TkhXQw=="}, "num_args": {"i": "1"}, "_input_shapes": {"list": {"shape": [{"dim": [{"size": "-27"}, {"size": "14"}, {"size": "28"}, {"size": "384"}]}, {"dim": [{"size": "1"}, {"size": "1"}, {"size": "384"}, {"size": "256"}]}]}}, "fused_ops": {"list": {"s": ["Qmlhc0FkZA=="]}}, "TArgs": {"list": {"type": ["DT_FLOAT"]}}, "filter_format": {"s": "SFdJTw=="}, "epsilon": {"f": 0.0}, "dilations": {"list": {"i": ["1", "1", "1", "1"]}}, "padding": {"s": "U0FNRQ=="}, "strides": {"list": {"i": ["1", "1", "1", "1"]}}, "num_host_args": {"i": "0"}, "use_cudnn_on_gpu": {"b": true}, "T": {"type": "DT_FLOAT"}, "leakyrelu_alpha": {"f": 0.2}, "explicit_paddings": {"list": {}}}}, {"name": "PartitionedCall/model_13/tf.math.add_47/Add", "op": "_FusedConv2D", "input": ["PartitionedCall/model_13/tf.math.multiply_128/Mul", "12727", "12737"], "device": "/device:CPU:0", "attr": {"TArgs": {"list": {"type": ["DT_FLOAT"]}}, "num_host_args": {"i": "0"}, "data_format": {"s": "TkhXQw=="}, "strides": {"list": {"i": ["1", "1", "1", "1"]}}, "padding": {"s": "U0FNRQ=="}, "T": {"type": "DT_FLOAT"}, "filter_format": {"s": "SFdJTw=="}, "epsilon": {"f": 0.0}, "use_cudnn_on_gpu": {"b": true}, "explicit_paddings": {"list": {}}, "fused_ops": {"list": {"s": ["Qmlhc0FkZA=="]}}, "_input_shapes": {"list": {"shape": [{"dim": [{"size": "-27"}, {"size": "28"}, {"size": "56"}, {"size": "64"}]}, {"dim": [{"size": "1"}, {"size": "1"}, {"size": "64"}, {"size": "64"}]}]}}, "leakyrelu_alpha": {"f": 0.2}, "dilations": {"list": {"i": ["1", "1", "1", "1"]}}, "num_args": {"i": "1"}}}, {"name": "PartitionedCall/model_13/tf.math.add_48/Add", "op": "_FusedConv2D", "input": ["PartitionedCall/model_13/tf.math.multiply_131/Mul", "12725", "12739"], "device": "/device:CPU:0", "attr": {"data_format": {"s": "TkhXQw=="}, "strides": {"list": {"i": ["1", "1", "1", "1"]}}, "filter_format": {"s": "SFdJTw=="}, "use_cudnn_on_gpu": {"b": true}, "padding": {"s": "U0FNRQ=="}, "num_host_args": {"i": "0"}, "explicit_paddings": {"list": {}}, "epsilon": {"f": 0.0}, "_input_shapes": {"list": {"shape": [{"dim": [{"size": "-27"}, {"size": "28"}, {"size": "56"}, {"size": "128"}]}, {"dim": [{"size": "1"}, {"size": "1"}, {"size": "128"}, {"size": "10"}]}]}}, "TArgs": {"list": {"type": ["DT_FLOAT"]}}, "dilations": {"list": {"i": ["1", "1", "1", "1"]}}, "T": {"type": "DT_FLOAT"}, "fused_ops": {"list": {"s": ["Qmlhc0FkZA=="]}}, "num_args": {"i": "1"}, "leakyrelu_alpha": {"f": 0.2}}}, {"name": "PartitionedCall/model_13/tf.math.sigmoid_40/Sigmoid", "op": "Sigmoid", "input": ["PartitionedCall/model_13/tf.math.add_46/Add"], "attr": {"T": {"type": "DT_FLOAT"}, "_input_shapes": {"list": {"shape": [{"dim": [{"size": "-27"}, {"size": "14"}, {"size": "28"}, {"size": "256"}]}]}}}}, {"name": "PartitionedCall/model_13/tf.concat_10/concat", "op": "ConcatV2", "input": ["PartitionedCall/model_13/tf.math.add_47/Add", "PartitionedCall/model_13/tf.math.add_48/Add", "PartitionedCall/model_13/tf.concat_10/concat/axis"], "attr": {"N": {"i": "2"}, "Tidx": {"type": "DT_INT32"}, "T": {"type": "DT_FLOAT"}}}, {"name": "PartitionedCall/model_13/tf.math.multiply_134/Mul", "op": "Mul", "input": ["PartitionedCall/model_13/tf.math.add_46/Add", "PartitionedCall/model_13/tf.math.sigmoid_40/Sigmoid"], "attr": {"T": {"type": "DT_FLOAT"}}}, {"name": "PartitionedCall/model_13/tf.compat.v1.transpose_2/transpose", "op": "Transpose", "input": ["PartitionedCall/model_13/tf.concat_10/concat", "PartitionedCall/model_13/tf.compat.v1.transpose_2/transpose/perm"], "attr": {"T": {"type": "DT_FLOAT"}, "Tperm": {"type": "DT_INT32"}, "_input_shapes": {"list": {"shape": [{"dim": [{"size": "-27"}, {"size": "28"}, {"size": "56"}, {"size": "74"}]}, {"dim": [{"size": "4"}]}]}}}}, {"name": "PartitionedCall/model_13/tf.strided_slice_12/StridedSlice", "op": "StridedSlice", "input": ["PartitionedCall/model_13/tf.math.multiply_134/Mul", "12631", "12633", "PartitionedCall/model_13/tf.strided_slice_12/ones_like"], "attr": {"Index": {"type": "DT_INT64"}, "begin_mask": {"i": "15"}, "T": {"type": "DT_FLOAT"}, "shrink_axis_mask": {"i": "0"}, "end_mask": {"i": "7"}, "new_axis_mask": {"i": "0"}, "ellipsis_mask": {"i": "0"}}}, {"name": "PartitionedCall/model_13/tf.strided_slice_13/StridedSlice", "op": "StridedSlice", "input": ["PartitionedCall/model_13/tf.math.multiply_134/Mul", "12619", "12621", "PartitionedCall/model_13/tf.strided_slice_13/ones_like"], "attr": {"end_mask": {"i": "7"}, "Index": {"type": "DT_INT64"}, "T": {"type": "DT_FLOAT"}, "new_axis_mask": {"i": "0"}, "shrink_axis_mask": {"i": "0"}, "ellipsis_mask": {"i": "0"}, "begin_mask": {"i": "7"}}}, {"name": "PartitionedCall/model_13/tf.reshape_2/Reshape", "op": "Reshape", "input": ["PartitionedCall/model_13/tf.compat.v1.transpose_2/transpose", "PartitionedCall/model_13/tf.reshape_2/Reshape/shape"], "attr": {"Tshape": {"type": "DT_INT32"}, "T": {"type": "DT_FLOAT"}}}, {"name": "PartitionedCall/model_13/tf.math.add_49/Add", "op": "_FusedConv2D", "input": ["PartitionedCall/model_13/tf.strided_slice_13/StridedSlice", "12623", "12625"], "device": "/device:CPU:0", "attr": {"fused_ops": {"list": {"s": ["Qmlhc0FkZA=="]}}, "explicit_paddings": {"list": {}}, "filter_format": {"s": "SFdJTw=="}, "num_args": {"i": "1"}, "leakyrelu_alpha": {"f": 0.2}, "epsilon": {"f": 0.0}, "use_cudnn_on_gpu": {"b": true}, "padding": {"s": "U0FNRQ=="}, "TArgs": {"list": {"type": ["DT_FLOAT"]}}, "data_format": {"s": "TkhXQw=="}, "_input_shapes": {"list": {"shape": [{"dim": [{"size": "-23"}, {"size": "14"}, {"size": "28"}, {"size": "128"}]}, {"dim": [{"size": "3"}, {"size": "3"}, {"size": "128"}, {"size": "128"}]}]}}, "dilations": {"list": {"i": ["1", "1", "1", "1"]}}, "strides": {"list": {"i": ["1", "1", "1", "1"]}}, "num_host_args": {"i": "0"}, "T": {"type": "DT_FLOAT"}}}, {"name": "PartitionedCall/model_13/tf.math.sigmoid_41/Sigmoid", "op": "Sigmoid", "input": ["PartitionedCall/model_13/tf.math.add_49/Add"], "attr": {"T": {"type": "DT_FLOAT"}, "_input_shapes": {"list": {"shape": [{"dim": [{"size": "-23"}, {"size": "14"}, {"size": "28"}, {"size": "128"}]}]}}}}, {"name": "PartitionedCall/model_13/tf.math.multiply_137/Mul", "op": "Mul", "input": ["PartitionedCall/model_13/tf.math.add_49/Add", "PartitionedCall/model_13/tf.math.sigmoid_41/Sigmoid"], "attr": {"T": {"type": "DT_FLOAT"}}}, {"name": "PartitionedCall/model_13/tf.math.add_50/Add", "op": "_FusedConv2D", "input": ["PartitionedCall/model_13/tf.math.multiply_137/Mul", "12627", "12629"], "device": "/device:CPU:0", "attr": {"data_format": {"s": "TkhXQw=="}, "num_host_args": {"i": "0"}, "leakyrelu_alpha": {"f": 0.2}, "T": {"type": "DT_FLOAT"}, "dilations": {"list": {"i": ["1", "1", "1", "1"]}}, "strides": {"list": {"i": ["1", "1", "1", "1"]}}, "filter_format": {"s": "SFdJTw=="}, "padding": {"s": "U0FNRQ=="}, "_input_shapes": {"list": {"shape": [{"dim": [{"size": "-23"}, {"size": "14"}, {"size": "28"}, {"size": "128"}]}, {"dim": [{"size": "3"}, {"size": "3"}, {"size": "128"}, {"size": "128"}]}]}}, "TArgs": {"list": {"type": ["DT_FLOAT"]}}, "explicit_paddings": {"list": {}}, "use_cudnn_on_gpu": {"b": true}, "fused_ops": {"list": {"s": ["Qmlhc0FkZA=="]}}, "num_args": {"i": "1"}, "epsilon": {"f": 0.0}}}, {"name": "PartitionedCall/model_13/tf.math.sigmoid_42/Sigmoid", "op": "Sigmoid", "input": ["PartitionedCall/model_13/tf.math.add_50/Add"], "attr": {"T": {"type": "DT_FLOAT"}, "_input_shapes": {"list": {"shape": [{"dim": [{"size": "-23"}, {"size": "14"}, {"size": "28"}, {"size": "128"}]}]}}}}, {"name": "PartitionedCall/model_13/tf.math.multiply_140/Mul", "op": "Mul", "input": ["PartitionedCall/model_13/tf.math.add_50/Add", "PartitionedCall/model_13/tf.math.sigmoid_42/Sigmoid"], "attr": {"T": {"type": "DT_FLOAT"}}}, {"name": "PartitionedCall/model_13/tf.concat_11/concat", "op": "ConcatV2", "input": ["PartitionedCall/model_13/tf.strided_slice_12/StridedSlice", "PartitionedCall/model_13/tf.strided_slice_13/StridedSlice", "PartitionedCall/model_13/tf.math.multiply_140/Mul", "PartitionedCall/model_13/tf.concat_11/concat/axis"], "attr": {"N": {"i": "3"}, "T": {"type": "DT_FLOAT"}, "Tidx": {"type": "DT_INT32"}}}, {"name": "PartitionedCall/model_13/tf.math.add_51/Add", "op": "_FusedConv2D", "input": ["PartitionedCall/model_13/tf.concat_11/concat", "12635", "12637"], "device": "/device:CPU:0", "attr": {"padding": {"s": "U0FNRQ=="}, "dilations": {"list": {"i": ["1", "1", "1", "1"]}}, "_input_shapes": {"list": {"shape": [{"dim": [{"size": "-23"}, {"size": "14"}, {"size": "28"}, {"size": "384"}]}, {"dim": [{"size": "1"}, {"size": "1"}, {"size": "384"}, {"size": "256"}]}]}}, "fused_ops": {"list": {"s": ["Qmlhc0FkZA=="]}}, "num_host_args": {"i": "0"}, "use_cudnn_on_gpu": {"b": true}, "T": {"type": "DT_FLOAT"}, "filter_format": {"s": "SFdJTw=="}, "data_format": {"s": "TkhXQw=="}, "strides": {"list": {"i": ["1", "1", "1", "1"]}}, "num_args": {"i": "1"}, "TArgs": {"list": {"type": ["DT_FLOAT"]}}, "epsilon": {"f": 0.0}, "explicit_paddings": {"list": {}}, "leakyrelu_alpha": {"f": 0.2}}}, {"name": "PartitionedCall/model_13/tf.math.sigmoid_43/Sigmoid", "op": "Sigmoid", "input": ["PartitionedCall/model_13/tf.math.add_51/Add"], "attr": {"_input_shapes": {"list": {"shape": [{"dim": [{"size": "-23"}, {"size": "14"}, {"size": "28"}, {"size": "256"}]}]}}, "T": {"type": "DT_FLOAT"}}}, {"name": "PartitionedCall/model_13/tf.math.multiply_143/Mul", "op": "Mul", "input": ["PartitionedCall/model_13/tf.math.add_51/Add", "PartitionedCall/model_13/tf.math.sigmoid_43/Sigmoid"], "attr": {"T": {"type": "DT_FLOAT"}}}, {"name": "PartitionedCall/model_13/tf.math.add_53/Add", "op": "_FusedConv2D", "input": ["PartitionedCall/model_13/tf.math.multiply_143/Mul", "12675", "12687"], "device": "/device:CPU:0", "attr": {"strides": {"list": {"i": ["1", "1", "1", "1"]}}, "num_args": {"i": "1"}, "T": {"type": "DT_FLOAT"}, "use_cudnn_on_gpu": {"b": true}, "explicit_paddings": {"list": {}}, "num_host_args": {"i": "0"}, "fused_ops": {"list": {"s": ["Qmlhc0FkZA=="]}}, "filter_format": {"s": "SFdJTw=="}, "padding": {"s": "U0FNRQ=="}, "_input_shapes": {"list": {"shape": [{"dim": [{"size": "-23"}, {"size": "14"}, {"size": "28"}, {"size": "256"}]}, {"dim": [{"size": "3"}, {"size": "3"}, {"size": "256"}, {"size": "64"}]}]}}, "data_format": {"s": "TkhXQw=="}, "epsilon": {"f": 0.0}, "dilations": {"list": {"i": ["1", "1", "1", "1"]}}, "TArgs": {"list": {"type": ["DT_FLOAT"]}}, "leakyrelu_alpha": {"f": 0.2}}}, {"name": "PartitionedCall/model_13/tf.math.add_54/Add", "op": "_FusedConv2D", "input": ["PartitionedCall/model_13/tf.math.multiply_143/Mul", "12673", "12685"], "device": "/device:CPU:0", "attr": {"padding": {"s": "U0FNRQ=="}, "explicit_paddings": {"list": {}}, "leakyrelu_alpha": {"f": 0.2}, "fused_ops": {"list": {"s": ["Qmlhc0FkZA=="]}}, "TArgs": {"list": {"type": ["DT_FLOAT"]}}, "epsilon": {"f": 0.0}, "dilations": {"list": {"i": ["1", "1", "1", "1"]}}, "strides": {"list": {"i": ["1", "1", "1", "1"]}}, "num_host_args": {"i": "0"}, "_input_shapes": {"list": {"shape": [{"dim": [{"size": "-23"}, {"size": "14"}, {"size": "28"}, {"size": "256"}]}, {"dim": [{"size": "3"}, {"size": "3"}, {"size": "256"}, {"size": "128"}]}]}}, "T": {"type": "DT_FLOAT"}, "filter_format": {"s": "SFdJTw=="}, "use_cudnn_on_gpu": {"b": true}, "data_format": {"s": "TkhXQw=="}, "num_args": {"i": "1"}}}, {"name": "PartitionedCall/model_13/tf.compat.v1.pad_6/Pad", "op": "Pad", "input": ["PartitionedCall/model_13/tf.math.multiply_143/Mul", "12639"], "attr": {"T": {"type": "DT_FLOAT"}, "Tpaddings": {"type": "DT_INT32"}}}, {"name": "PartitionedCall/model_13/tf.math.sigmoid_45/Sigmoid", "op": "Sigmoid", "input": ["PartitionedCall/model_13/tf.math.add_53/Add"], "attr": {"_input_shapes": {"list": {"shape": [{"dim": [{"size": "-23"}, {"size": "14"}, {"size": "28"}, {"size": "64"}]}]}}, "T": {"type": "DT_FLOAT"}}}, {"name": "PartitionedCall/model_13/tf.math.sigmoid_46/Sigmoid", "op": "Sigmoid", "input": ["PartitionedCall/model_13/tf.math.add_54/Add"], "attr": {"_input_shapes": {"list": {"shape": [{"dim": [{"size": "-23"}, {"size": "14"}, {"size": "28"}, {"size": "128"}]}]}}, "T": {"type": "DT_FLOAT"}}}, {"name": "PartitionedCall/model_13/tf.math.add_52/Add", "op": "_FusedConv2D", "input": ["PartitionedCall/model_13/tf.compat.v1.pad_6/Pad", "12641", "12643"], "device": "/device:CPU:0", "attr": {"num_args": {"i": "1"}, "TArgs": {"list": {"type": ["DT_FLOAT"]}}, "padding": {"s": "VkFMSUQ="}, "fused_ops": {"list": {"s": ["Qmlhc0FkZA=="]}}, "explicit_paddings": {"list": {}}, "filter_format": {"s": "SFdJTw=="}, "leakyrelu_alpha": {"f": 0.2}, "epsilon": {"f": 0.0}, "strides": {"list": {"i": ["1", "2", "2", "1"]}}, "dilations": {"list": {"i": ["1", "1", "1", "1"]}}, "_input_shapes": {"list": {"shape": [{"dim": [{"size": "-23"}, {"size": "16"}, {"size": "30"}, {"size": "256"}]}, {"dim": [{"size": "3"}, {"size": "3"}, {"size": "256"}, {"size": "256"}]}]}}, "use_cudnn_on_gpu": {"b": true}, "num_host_args": {"i": "0"}, "data_format": {"s": "TkhXQw=="}, "T": {"type": "DT_FLOAT"}}}, {"name": "PartitionedCall/model_13/tf.math.multiply_149/Mul", "op": "Mul", "input": ["PartitionedCall/model_13/tf.math.add_53/Add", "PartitionedCall/model_13/tf.math.sigmoid_45/Sigmoid"], "attr": {"T": {"type": "DT_FLOAT"}}}, {"name": "PartitionedCall/model_13/tf.math.multiply_152/Mul", "op": "Mul", "input": ["PartitionedCall/model_13/tf.math.add_54/Add", "PartitionedCall/model_13/tf.math.sigmoid_46/Sigmoid"], "attr": {"T": {"type": "DT_FLOAT"}}}, {"name": "PartitionedCall/model_13/tf.math.sigmoid_44/Sigmoid", "op": "Sigmoid", "input": ["PartitionedCall/model_13/tf.math.add_52/Add"], "attr": {"T": {"type": "DT_FLOAT"}, "_input_shapes": {"list": {"shape": [{"dim": [{"size": "-23"}, {"size": "7"}, {"size": "14"}, {"size": "256"}]}]}}}}, {"name": "PartitionedCall/model_13/tf.math.add_55/Add", "op": "_FusedConv2D", "input": ["PartitionedCall/model_13/tf.math.multiply_149/Mul", "12699", "12711"], "device": "/device:CPU:0", "attr": {"TArgs": {"list": {"type": ["DT_FLOAT"]}}, "_input_shapes": {"list": {"shape": [{"dim": [{"size": "-23"}, {"size": "14"}, {"size": "28"}, {"size": "64"}]}, {"dim": [{"size": "3"}, {"size": "3"}, {"size": "64"}, {"size": "64"}]}]}}, "use_cudnn_on_gpu": {"b": true}, "padding": {"s": "U0FNRQ=="}, "explicit_paddings": {"list": {}}, "fused_ops": {"list": {"s": ["Qmlhc0FkZA=="]}}, "strides": {"list": {"i": ["1", "1", "1", "1"]}}, "filter_format": {"s": "SFdJTw=="}, "data_format": {"s": "TkhXQw=="}, "num_args": {"i": "1"}, "leakyrelu_alpha": {"f": 0.2}, "num_host_args": {"i": "0"}, "dilations": {"list": {"i": ["1", "1", "1", "1"]}}, "epsilon": {"f": 0.0}, "T": {"type": "DT_FLOAT"}}}, {"name": "PartitionedCall/model_13/tf.math.add_56/Add", "op": "_FusedConv2D", "input": ["PartitionedCall/model_13/tf.math.multiply_152/Mul", "12697", "12709"], "device": "/device:CPU:0", "attr": {"filter_format": {"s": "SFdJTw=="}, "padding": {"s": "U0FNRQ=="}, "leakyrelu_alpha": {"f": 0.2}, "T": {"type": "DT_FLOAT"}, "explicit_paddings": {"list": {}}, "epsilon": {"f": 0.0}, "num_args": {"i": "1"}, "fused_ops": {"list": {"s": ["Qmlhc0FkZA=="]}}, "strides": {"list": {"i": ["1", "1", "1", "1"]}}, "_input_shapes": {"list": {"shape": [{"dim": [{"size": "-23"}, {"size": "14"}, {"size": "28"}, {"size": "128"}]}, {"dim": [{"size": "3"}, {"size": "3"}, {"size": "128"}, {"size": "128"}]}]}}, "use_cudnn_on_gpu": {"b": true}, "dilations": {"list": {"i": ["1", "1", "1", "1"]}}, "num_host_args": {"i": "0"}, "data_format": {"s": "TkhXQw=="}, "TArgs": {"list": {"type": ["DT_FLOAT"]}}}}, {"name": "PartitionedCall/model_13/tf.math.multiply_146/Mul", "op": "Mul", "input": ["PartitionedCall/model_13/tf.math.add_52/Add", "PartitionedCall/model_13/tf.math.sigmoid_44/Sigmoid"], "attr": {"T": {"type": "DT_FLOAT"}}}, {"name": "PartitionedCall/model_13/tf.math.sigmoid_47/Sigmoid", "op": "Sigmoid", "input": ["PartitionedCall/model_13/tf.math.add_55/Add"], "attr": {"_input_shapes": {"list": {"shape": [{"dim": [{"size": "-23"}, {"size": "14"}, {"size": "28"}, {"size": "64"}]}]}}, "T": {"type": "DT_FLOAT"}}}, {"name": "PartitionedCall/model_13/tf.math.sigmoid_48/Sigmoid", "op": "Sigmoid", "input": ["PartitionedCall/model_13/tf.math.add_56/Add"], "attr": {"T": {"type": "DT_FLOAT"}, "_input_shapes": {"list": {"shape": [{"dim": [{"size": "-23"}, {"size": "14"}, {"size": "28"}, {"size": "128"}]}]}}}}, {"name": "PartitionedCall/model_13/tf.concat_12/concat", "op": "ConcatV2", "input": ["PartitionedCall/model_13/tf.math.multiply_146/Mul", "PartitionedCall/model_13/tf.math.multiply_92/Mul", "PartitionedCall/model_13/tf.concat_12/concat/axis"], "attr": {"N": {"i": "2"}, "T": {"type": "DT_FLOAT"}, "Tidx": {"type": "DT_INT32"}}}, {"name": "PartitionedCall/model_13/tf.math.multiply_155/Mul", "op": "Mul", "input": ["PartitionedCall/model_13/tf.math.add_55/Add", "PartitionedCall/model_13/tf.math.sigmoid_47/Sigmoid"], "attr": {"T": {"type": "DT_FLOAT"}}}, {"name": "PartitionedCall/model_13/tf.math.multiply_158/Mul", "op": "Mul", "input": ["PartitionedCall/model_13/tf.math.add_56/Add", "PartitionedCall/model_13/tf.math.sigmoid_48/Sigmoid"], "attr": {"T": {"type": "DT_FLOAT"}}}, {"name": "PartitionedCall/model_13/tf.math.add_57/Add", "op": "_FusedConv2D", "input": ["PartitionedCall/model_13/tf.concat_12/concat", "12645", "12647"], "device": "/device:CPU:0", "attr": {"use_cudnn_on_gpu": {"b": true}, "TArgs": {"list": {"type": ["DT_FLOAT"]}}, "data_format": {"s": "TkhXQw=="}, "fused_ops": {"list": {"s": ["Qmlhc0FkZA=="]}}, "padding": {"s": "U0FNRQ=="}, "T": {"type": "DT_FLOAT"}, "leakyrelu_alpha": {"f": 0.2}, "epsilon": {"f": 0.0}, "filter_format": {"s": "SFdJTw=="}, "strides": {"list": {"i": ["1", "1", "1", "1"]}}, "dilations": {"list": {"i": ["1", "1", "1", "1"]}}, "num_host_args": {"i": "0"}, "_input_shapes": {"list": {"shape": [{"dim": [{"size": "-23"}, {"size": "7"}, {"size": "14"}, {"size": "768"}]}, {"dim": [{"size": "1"}, {"size": "1"}, {"size": "768"}, {"size": "512"}]}]}}, "num_args": {"i": "1"}, "explicit_paddings": {"list": {}}}}, {"name": "PartitionedCall/model_13/tf.math.add_58/Add", "op": "_FusedConv2D", "input": ["PartitionedCall/model_13/tf.math.multiply_155/Mul", "12723", "12733"], "device": "/device:CPU:0", "attr": {"num_args": {"i": "1"}, "TArgs": {"list": {"type": ["DT_FLOAT"]}}, "dilations": {"list": {"i": ["1", "1", "1", "1"]}}, "leakyrelu_alpha": {"f": 0.2}, "padding": {"s": "U0FNRQ=="}, "explicit_paddings": {"list": {}}, "data_format": {"s": "TkhXQw=="}, "filter_format": {"s": "SFdJTw=="}, "fused_ops": {"list": {"s": ["Qmlhc0FkZA=="]}}, "num_host_args": {"i": "0"}, "_input_shapes": {"list": {"shape": [{"dim": [{"size": "-23"}, {"size": "14"}, {"size": "28"}, {"size": "64"}]}, {"dim": [{"size": "1"}, {"size": "1"}, {"size": "64"}, {"size": "64"}]}]}}, "strides": {"list": {"i": ["1", "1", "1", "1"]}}, "epsilon": {"f": 0.0}, "use_cudnn_on_gpu": {"b": true}, "T": {"type": "DT_FLOAT"}}}, {"name": "PartitionedCall/model_13/tf.math.add_59/Add", "op": "_FusedConv2D", "input": ["PartitionedCall/model_13/tf.math.multiply_158/Mul", "12721", "12735"], "device": "/device:CPU:0", "attr": {"_input_shapes": {"list": {"shape": [{"dim": [{"size": "-23"}, {"size": "14"}, {"size": "28"}, {"size": "128"}]}, {"dim": [{"size": "1"}, {"size": "1"}, {"size": "128"}, {"size": "10"}]}]}}, "num_host_args": {"i": "0"}, "explicit_paddings": {"list": {}}, "use_cudnn_on_gpu": {"b": true}, "dilations": {"list": {"i": ["1", "1", "1", "1"]}}, "TArgs": {"list": {"type": ["DT_FLOAT"]}}, "T": {"type": "DT_FLOAT"}, "strides": {"list": {"i": ["1", "1", "1", "1"]}}, "fused_ops": {"list": {"s": ["Qmlhc0FkZA=="]}}, "num_args": {"i": "1"}, "leakyrelu_alpha": {"f": 0.2}, "data_format": {"s": "TkhXQw=="}, "epsilon": {"f": 0.0}, "filter_format": {"s": "SFdJTw=="}, "padding": {"s": "U0FNRQ=="}}}, {"name": "PartitionedCall/model_13/tf.math.sigmoid_49/Sigmoid", "op": "Sigmoid", "input": ["PartitionedCall/model_13/tf.math.add_57/Add"], "attr": {"T": {"type": "DT_FLOAT"}, "_input_shapes": {"list": {"shape": [{"dim": [{"size": "-23"}, {"size": "7"}, {"size": "14"}, {"size": "512"}]}]}}}}, {"name": "PartitionedCall/model_13/tf.concat_13/concat", "op": "ConcatV2", "input": ["PartitionedCall/model_13/tf.math.add_58/Add", "PartitionedCall/model_13/tf.math.add_59/Add", "PartitionedCall/model_13/tf.concat_13/concat/axis"], "attr": {"N": {"i": "2"}, "T": {"type": "DT_FLOAT"}, "Tidx": {"type": "DT_INT32"}}}, {"name": "PartitionedCall/model_13/tf.math.multiply_161/Mul", "op": "Mul", "input": ["PartitionedCall/model_13/tf.math.add_57/Add", "PartitionedCall/model_13/tf.math.sigmoid_49/Sigmoid"], "attr": {"T": {"type": "DT_FLOAT"}}}, {"name": "PartitionedCall/model_13/tf.compat.v1.transpose_7/transpose", "op": "Transpose", "input": ["PartitionedCall/model_13/tf.concat_13/concat", "PartitionedCall/model_13/tf.compat.v1.transpose_7/transpose/perm"], "attr": {"T": {"type": "DT_FLOAT"}, "_input_shapes": {"list": {"shape": [{"dim": [{"size": "-23"}, {"size": "14"}, {"size": "28"}, {"size": "74"}]}, {"dim": [{"size": "4"}]}]}}, "Tperm": {"type": "DT_INT32"}}}, {"name": "PartitionedCall/model_13/tf.strided_slice_14/StridedSlice", "op": "StridedSlice", "input": ["PartitionedCall/model_13/tf.math.multiply_161/Mul", "12661", "12663", "PartitionedCall/model_13/tf.strided_slice_14/ones_like"], "attr": {"T": {"type": "DT_FLOAT"}, "new_axis_mask": {"i": "0"}, "begin_mask": {"i": "15"}, "shrink_axis_mask": {"i": "0"}, "Index": {"type": "DT_INT64"}, "ellipsis_mask": {"i": "0"}, "end_mask": {"i": "7"}}}, {"name": "PartitionedCall/model_13/tf.strided_slice_15/StridedSlice", "op": "StridedSlice", "input": ["PartitionedCall/model_13/tf.math.multiply_161/Mul", "12649", "12651", "PartitionedCall/model_13/tf.strided_slice_15/ones_like"], "attr": {"ellipsis_mask": {"i": "0"}, "end_mask": {"i": "7"}, "shrink_axis_mask": {"i": "0"}, "new_axis_mask": {"i": "0"}, "begin_mask": {"i": "7"}, "Index": {"type": "DT_INT64"}, "T": {"type": "DT_FLOAT"}}}, {"name": "PartitionedCall/model_13/tf.reshape_5/Reshape", "op": "Reshape", "input": ["PartitionedCall/model_13/tf.compat.v1.transpose_7/transpose", "PartitionedCall/model_13/tf.reshape_5/Reshape/shape"], "attr": {"T": {"type": "DT_FLOAT"}, "Tshape": {"type": "DT_INT32"}}}, {"name": "PartitionedCall/model_13/tf.math.add_60/Add", "op": "_FusedConv2D", "input": ["PartitionedCall/model_13/tf.strided_slice_15/StridedSlice", "12653", "12655"], "device": "/device:CPU:0", "attr": {"num_host_args": {"i": "0"}, "padding": {"s": "U0FNRQ=="}, "leakyrelu_alpha": {"f": 0.2}, "fused_ops": {"list": {"s": ["Qmlhc0FkZA=="]}}, "filter_format": {"s": "SFdJTw=="}, "epsilon": {"f": 0.0}, "use_cudnn_on_gpu": {"b": true}, "_input_shapes": {"list": {"shape": [{"dim": [{"size": "1"}, {"size": "7"}, {"size": "14"}, {"size": "256"}]}, {"dim": [{"size": "3"}, {"size": "3"}, {"size": "256"}, {"size": "256"}]}]}}, "strides": {"list": {"i": ["1", "1", "1", "1"]}}, "dilations": {"list": {"i": ["1", "1", "1", "1"]}}, "TArgs": {"list": {"type": ["DT_FLOAT"]}}, "data_format": {"s": "TkhXQw=="}, "num_args": {"i": "1"}, "T": {"type": "DT_FLOAT"}, "explicit_paddings": {"list": {}}}}, {"name": "PartitionedCall/model_13/tf.math.sigmoid_50/Sigmoid", "op": "Sigmoid", "input": ["PartitionedCall/model_13/tf.math.add_60/Add"], "attr": {"T": {"type": "DT_FLOAT"}, "_input_shapes": {"list": {"shape": [{"dim": [{"size": "1"}, {"size": "7"}, {"size": "14"}, {"size": "256"}]}]}}}}, {"name": "PartitionedCall/model_13/tf.math.multiply_164/Mul", "op": "Mul", "input": ["PartitionedCall/model_13/tf.math.add_60/Add", "PartitionedCall/model_13/tf.math.sigmoid_50/Sigmoid"], "attr": {"T": {"type": "DT_FLOAT"}}}, {"name": "PartitionedCall/model_13/tf.math.add_61/Add", "op": "_FusedConv2D", "input": ["PartitionedCall/model_13/tf.math.multiply_164/Mul", "12657", "12659"], "device": "/device:CPU:0", "attr": {"dilations": {"list": {"i": ["1", "1", "1", "1"]}}, "fused_ops": {"list": {"s": ["Qmlhc0FkZA=="]}}, "TArgs": {"list": {"type": ["DT_FLOAT"]}}, "num_host_args": {"i": "0"}, "data_format": {"s": "TkhXQw=="}, "explicit_paddings": {"list": {}}, "padding": {"s": "U0FNRQ=="}, "strides": {"list": {"i": ["1", "1", "1", "1"]}}, "leakyrelu_alpha": {"f": 0.2}, "epsilon": {"f": 0.0}, "_input_shapes": {"list": {"shape": [{"dim": [{"size": "1"}, {"size": "7"}, {"size": "14"}, {"size": "256"}]}, {"dim": [{"size": "3"}, {"size": "3"}, {"size": "256"}, {"size": "256"}]}]}}, "T": {"type": "DT_FLOAT"}, "filter_format": {"s": "SFdJTw=="}, "num_args": {"i": "1"}, "use_cudnn_on_gpu": {"b": true}}}, {"name": "PartitionedCall/model_13/tf.math.sigmoid_51/Sigmoid", "op": "Sigmoid", "input": ["PartitionedCall/model_13/tf.math.add_61/Add"], "attr": {"T": {"type": "DT_FLOAT"}, "_input_shapes": {"list": {"shape": [{"dim": [{"size": "1"}, {"size": "7"}, {"size": "14"}, {"size": "256"}]}]}}}}, {"name": "PartitionedCall/model_13/tf.math.multiply_167/Mul", "op": "Mul", "input": ["PartitionedCall/model_13/tf.math.add_61/Add", "PartitionedCall/model_13/tf.math.sigmoid_51/Sigmoid"], "attr": {"T": {"type": "DT_FLOAT"}}}, {"name": "PartitionedCall/model_13/tf.concat_14/concat", "op": "ConcatV2", "input": ["PartitionedCall/model_13/tf.strided_slice_14/StridedSlice", "PartitionedCall/model_13/tf.strided_slice_15/StridedSlice", "PartitionedCall/model_13/tf.math.multiply_167/Mul", "PartitionedCall/model_13/tf.concat_14/concat/axis"], "attr": {"N": {"i": "3"}, "Tidx": {"type": "DT_INT32"}, "T": {"type": "DT_FLOAT"}}}, {"name": "PartitionedCall/model_13/tf.math.add_62/Add", "op": "_FusedConv2D", "input": ["PartitionedCall/model_13/tf.concat_14/concat", "12665", "12667"], "device": "/device:CPU:0", "attr": {"TArgs": {"list": {"type": ["DT_FLOAT"]}}, "fused_ops": {"list": {"s": ["Qmlhc0FkZA=="]}}, "T": {"type": "DT_FLOAT"}, "leakyrelu_alpha": {"f": 0.2}, "_input_shapes": {"list": {"shape": [{"dim": [{"size": "1"}, {"size": "7"}, {"size": "14"}, {"size": "768"}]}, {"dim": [{"size": "1"}, {"size": "1"}, {"size": "768"}, {"size": "512"}]}]}}, "num_host_args": {"i": "0"}, "explicit_paddings": {"list": {}}, "use_cudnn_on_gpu": {"b": true}, "strides": {"list": {"i": ["1", "1", "1", "1"]}}, "padding": {"s": "U0FNRQ=="}, "data_format": {"s": "TkhXQw=="}, "dilations": {"list": {"i": ["1", "1", "1", "1"]}}, "filter_format": {"s": "SFdJTw=="}, "epsilon": {"f": 0.0}, "num_args": {"i": "1"}}}, {"name": "PartitionedCall/model_13/tf.math.sigmoid_52/Sigmoid", "op": "Sigmoid", "input": ["PartitionedCall/model_13/tf.math.add_62/Add"], "attr": {"_input_shapes": {"list": {"shape": [{"dim": [{"size": "1"}, {"size": "7"}, {"size": "14"}, {"size": "512"}]}]}}, "T": {"type": "DT_FLOAT"}}}, {"name": "PartitionedCall/model_13/tf.math.multiply_170/Mul", "op": "Mul", "input": ["PartitionedCall/model_13/tf.math.add_62/Add", "PartitionedCall/model_13/tf.math.sigmoid_52/Sigmoid"], "attr": {"T": {"type": "DT_FLOAT"}}}, {"name": "PartitionedCall/model_13/tf.math.add_63/Add", "op": "_FusedConv2D", "input": ["PartitionedCall/model_13/tf.math.multiply_170/Mul", "12671", "12683"], "device": "/device:CPU:0", "attr": {"num_args": {"i": "1"}, "dilations": {"list": {"i": ["1", "1", "1", "1"]}}, "padding": {"s": "U0FNRQ=="}, "epsilon": {"f": 0.0}, "use_cudnn_on_gpu": {"b": true}, "leakyrelu_alpha": {"f": 0.2}, "T": {"type": "DT_FLOAT"}, "fused_ops": {"list": {"s": ["Qmlhc0FkZA=="]}}, "data_format": {"s": "TkhXQw=="}, "TArgs": {"list": {"type": ["DT_FLOAT"]}}, "filter_format": {"s": "SFdJTw=="}, "explicit_paddings": {"list": {}}, "_input_shapes": {"list": {"shape": [{"dim": [{"size": "1"}, {"size": "7"}, {"size": "14"}, {"size": "512"}]}, {"dim": [{"size": "3"}, {"size": "3"}, {"size": "512"}, {"size": "64"}]}]}}, "strides": {"list": {"i": ["1", "1", "1", "1"]}}, "num_host_args": {"i": "0"}}}, {"name": "PartitionedCall/model_13/tf.math.add_64/Add", "op": "_FusedConv2D", "input": ["PartitionedCall/model_13/tf.math.multiply_170/Mul", "12669", "12681"], "device": "/device:CPU:0", "attr": {"num_host_args": {"i": "0"}, "strides": {"list": {"i": ["1", "1", "1", "1"]}}, "num_args": {"i": "1"}, "use_cudnn_on_gpu": {"b": true}, "epsilon": {"f": 0.0}, "T": {"type": "DT_FLOAT"}, "TArgs": {"list": {"type": ["DT_FLOAT"]}}, "_input_shapes": {"list": {"shape": [{"dim": [{"size": "1"}, {"size": "7"}, {"size": "14"}, {"size": "512"}]}, {"dim": [{"size": "3"}, {"size": "3"}, {"size": "512"}, {"size": "128"}]}]}}, "fused_ops": {"list": {"s": ["Qmlhc0FkZA=="]}}, "data_format": {"s": "TkhXQw=="}, "filter_format": {"s": "SFdJTw=="}, "explicit_paddings": {"list": {}}, "padding": {"s": "U0FNRQ=="}, "dilations": {"list": {"i": ["1", "1", "1", "1"]}}, "leakyrelu_alpha": {"f": 0.2}}}, {"name": "PartitionedCall/model_13/tf.math.sigmoid_53/Sigmoid", "op": "Sigmoid", "input": ["PartitionedCall/model_13/tf.math.add_63/Add"], "attr": {"_input_shapes": {"list": {"shape": [{"dim": [{"size": "1"}, {"size": "7"}, {"size": "14"}, {"size": "64"}]}]}}, "T": {"type": "DT_FLOAT"}}}, {"name": "PartitionedCall/model_13/tf.math.sigmoid_54/Sigmoid", "op": "Sigmoid", "input": ["PartitionedCall/model_13/tf.math.add_64/Add"], "attr": {"_input_shapes": {"list": {"shape": [{"dim": [{"size": "1"}, {"size": "7"}, {"size": "14"}, {"size": "128"}]}]}}, "T": {"type": "DT_FLOAT"}}}, {"name": "PartitionedCall/model_13/tf.math.multiply_173/Mul", "op": "Mul", "input": ["PartitionedCall/model_13/tf.math.add_63/Add", "PartitionedCall/model_13/tf.math.sigmoid_53/Sigmoid"], "attr": {"T": {"type": "DT_FLOAT"}}}, {"name": "PartitionedCall/model_13/tf.math.multiply_176/Mul", "op": "Mul", "input": ["PartitionedCall/model_13/tf.math.add_64/Add", "PartitionedCall/model_13/tf.math.sigmoid_54/Sigmoid"], "attr": {"T": {"type": "DT_FLOAT"}}}, {"name": "PartitionedCall/model_13/tf.math.add_65/Add", "op": "_FusedConv2D", "input": ["PartitionedCall/model_13/tf.math.multiply_173/Mul", "12695", "12707"], "device": "/device:CPU:0", "attr": {"dilations": {"list": {"i": ["1", "1", "1", "1"]}}, "TArgs": {"list": {"type": ["DT_FLOAT"]}}, "padding": {"s": "U0FNRQ=="}, "explicit_paddings": {"list": {}}, "strides": {"list": {"i": ["1", "1", "1", "1"]}}, "fused_ops": {"list": {"s": ["Qmlhc0FkZA=="]}}, "data_format": {"s": "TkhXQw=="}, "leakyrelu_alpha": {"f": 0.2}, "use_cudnn_on_gpu": {"b": true}, "_input_shapes": {"list": {"shape": [{"dim": [{"size": "1"}, {"size": "7"}, {"size": "14"}, {"size": "64"}]}, {"dim": [{"size": "3"}, {"size": "3"}, {"size": "64"}, {"size": "64"}]}]}}, "epsilon": {"f": 0.0}, "num_host_args": {"i": "0"}, "num_args": {"i": "1"}, "filter_format": {"s": "SFdJTw=="}, "T": {"type": "DT_FLOAT"}}}, {"name": "PartitionedCall/model_13/tf.math.add_66/Add", "op": "_FusedConv2D", "input": ["PartitionedCall/model_13/tf.math.multiply_176/Mul", "12693", "12705"], "device": "/device:CPU:0", "attr": {"strides": {"list": {"i": ["1", "1", "1", "1"]}}, "num_host_args": {"i": "0"}, "explicit_paddings": {"list": {}}, "filter_format": {"s": "SFdJTw=="}, "use_cudnn_on_gpu": {"b": true}, "data_format": {"s": "TkhXQw=="}, "padding": {"s": "U0FNRQ=="}, "fused_ops": {"list": {"s": ["Qmlhc0FkZA=="]}}, "leakyrelu_alpha": {"f": 0.2}, "T": {"type": "DT_FLOAT"}, "TArgs": {"list": {"type": ["DT_FLOAT"]}}, "dilations": {"list": {"i": ["1", "1", "1", "1"]}}, "num_args": {"i": "1"}, "_input_shapes": {"list": {"shape": [{"dim": [{"size": "1"}, {"size": "7"}, {"size": "14"}, {"size": "128"}]}, {"dim": [{"size": "3"}, {"size": "3"}, {"size": "128"}, {"size": "128"}]}]}}, "epsilon": {"f": 0.0}}}, {"name": "PartitionedCall/model_13/tf.math.sigmoid_55/Sigmoid", "op": "Sigmoid", "input": ["PartitionedCall/model_13/tf.math.add_65/Add"], "attr": {"T": {"type": "DT_FLOAT"}, "_input_shapes": {"list": {"shape": [{"dim": [{"size": "1"}, {"size": "7"}, {"size": "14"}, {"size": "64"}]}]}}}}, {"name": "PartitionedCall/model_13/tf.math.sigmoid_56/Sigmoid", "op": "Sigmoid", "input": ["PartitionedCall/model_13/tf.math.add_66/Add"], "attr": {"T": {"type": "DT_FLOAT"}, "_input_shapes": {"list": {"shape": [{"dim": [{"size": "1"}, {"size": "7"}, {"size": "14"}, {"size": "128"}]}]}}}}, {"name": "PartitionedCall/model_13/tf.math.multiply_179/Mul", "op": "Mul", "input": ["PartitionedCall/model_13/tf.math.add_65/Add", "PartitionedCall/model_13/tf.math.sigmoid_55/Sigmoid"], "attr": {"T": {"type": "DT_FLOAT"}}}, {"name": "PartitionedCall/model_13/tf.math.multiply_182/Mul", "op": "Mul", "input": ["PartitionedCall/model_13/tf.math.add_66/Add", "PartitionedCall/model_13/tf.math.sigmoid_56/Sigmoid"], "attr": {"T": {"type": "DT_FLOAT"}}}, {"name": "PartitionedCall/model_13/tf.math.add_67/Add", "op": "_FusedConv2D", "input": ["PartitionedCall/model_13/tf.math.multiply_179/Mul", "12719", "12729"], "device": "/device:CPU:0", "attr": {"epsilon": {"f": 0.0}, "num_host_args": {"i": "0"}, "fused_ops": {"list": {"s": ["Qmlhc0FkZA=="]}}, "data_format": {"s": "TkhXQw=="}, "strides": {"list": {"i": ["1", "1", "1", "1"]}}, "filter_format": {"s": "SFdJTw=="}, "T": {"type": "DT_FLOAT"}, "use_cudnn_on_gpu": {"b": true}, "TArgs": {"list": {"type": ["DT_FLOAT"]}}, "padding": {"s": "U0FNRQ=="}, "leakyrelu_alpha": {"f": 0.2}, "_input_shapes": {"list": {"shape": [{"dim": [{"size": "1"}, {"size": "7"}, {"size": "14"}, {"size": "64"}]}, {"dim": [{"size": "1"}, {"size": "1"}, {"size": "64"}, {"size": "64"}]}]}}, "num_args": {"i": "1"}, "explicit_paddings": {"list": {}}, "dilations": {"list": {"i": ["1", "1", "1", "1"]}}}}, {"name": "PartitionedCall/model_13/tf.math.add_68/Add", "op": "_FusedConv2D", "input": ["PartitionedCall/model_13/tf.math.multiply_182/Mul", "12717", "12731"], "device": "/device:CPU:0", "attr": {"dilations": {"list": {"i": ["1", "1", "1", "1"]}}, "_input_shapes": {"list": {"shape": [{"dim": [{"size": "1"}, {"size": "7"}, {"size": "14"}, {"size": "128"}]}, {"dim": [{"size": "1"}, {"size": "1"}, {"size": "128"}, {"size": "10"}]}]}}, "strides": {"list": {"i": ["1", "1", "1", "1"]}}, "explicit_paddings": {"list": {}}, "filter_format": {"s": "SFdJTw=="}, "TArgs": {"list": {"type": ["DT_FLOAT"]}}, "padding": {"s": "U0FNRQ=="}, "num_args": {"i": "1"}, "leakyrelu_alpha": {"f": 0.2}, "num_host_args": {"i": "0"}, "data_format": {"s": "TkhXQw=="}, "fused_ops": {"list": {"s": ["Qmlhc0FkZA=="]}}, "T": {"type": "DT_FLOAT"}, "epsilon": {"f": 0.0}, "use_cudnn_on_gpu": {"b": true}}}, {"name": "PartitionedCall/model_13/tf.concat_15/concat", "op": "ConcatV2", "input": ["PartitionedCall/model_13/tf.math.add_67/Add", "PartitionedCall/model_13/tf.math.add_68/Add", "PartitionedCall/model_13/tf.concat_15/concat/axis"], "attr": {"N": {"i": "2"}, "T": {"type": "DT_FLOAT"}, "Tidx": {"type": "DT_INT32"}}}, {"name": "PartitionedCall/model_13/tf.compat.v1.transpose_12/transpose", "op": "Transpose", "input": ["PartitionedCall/model_13/tf.concat_15/concat", "PartitionedCall/model_13/tf.compat.v1.transpose_12/transpose/perm"], "attr": {"Tperm": {"type": "DT_INT32"}, "_input_shapes": {"list": {"shape": [{"dim": [{"size": "1"}, {"size": "7"}, {"size": "14"}, {"size": "74"}]}, {"dim": [{"size": "4"}]}]}}, "T": {"type": "DT_FLOAT"}}}, {"name": "PartitionedCall/model_13/tf.reshape_8/Reshape", "op": "Reshape", "input": ["PartitionedCall/model_13/tf.compat.v1.transpose_12/transpose", "PartitionedCall/model_13/tf.reshape_8/Reshape/shape"], "attr": {"T": {"type": "DT_FLOAT"}, "Tshape": {"type": "DT_INT32"}}}, {"name": "PartitionedCall/model_13/tf.concat_16/concat", "op": "ConcatV2", "input": ["PartitionedCall/model_13/tf.reshape_2/Reshape", "PartitionedCall/model_13/tf.reshape_5/Reshape", "PartitionedCall/model_13/tf.reshape_8/Reshape", "PartitionedCall/model_13/tf.concat_16/concat/axis"], "attr": {"N": {"i": "3"}, "T": {"type": "DT_FLOAT"}, "Tidx": {"type": "DT_INT32"}}}, {"name": "PartitionedCall/model_13/tf.strided_slice_17/StridedSlice", "op": "StridedSlice", "input": ["PartitionedCall/model_13/tf.concat_16/concat", "12761", "12763", "PartitionedCall/model_13/tf.strided_slice_17/StridedSlice/strides"], "attr": {"end_mask": {"i": "5"}, "ellipsis_mask": {"i": "0"}, "new_axis_mask": {"i": "0"}, "Index": {"type": "DT_INT64"}, "begin_mask": {"i": "5"}, "shrink_axis_mask": {"i": "0"}, "T": {"type": "DT_FLOAT"}}}, {"name": "PartitionedCall/model_13/tf.strided_slice_16/StridedSlice", "op": "StridedSlice", "input": ["PartitionedCall/model_13/tf.concat_16/concat", "12741", "12743", "PartitionedCall/model_13/tf.strided_slice_16/StridedSlice/strides"], "attr": {"new_axis_mask": {"i": "0"}, "T": {"type": "DT_FLOAT"}, "begin_mask": {"i": "7"}, "Index": {"type": "DT_INT64"}, "ellipsis_mask": {"i": "0"}, "shrink_axis_mask": {"i": "0"}, "end_mask": {"i": "5"}}}, {"name": "PartitionedCall/model_13/tf.math.sigmoid_57/Sigmoid", "op": "Sigmoid", "input": ["PartitionedCall/model_13/tf.strided_slice_17/StridedSlice"], "attr": {"_input_shapes": {"list": {"shape": [{"dim": [{"size": "1"}, {"size": "10"}, {"size": "2058"}]}]}}, "T": {"type": "DT_FLOAT"}}}, {"name": "PartitionedCall/model_13/tf.reshape_11/Reshape", "op": "Reshape", "input": ["PartitionedCall/model_13/tf.strided_slice_16/StridedSlice", "PartitionedCall/model_13/tf.reshape_11/Reshape/shape"], "attr": {"Tshape": {"type": "DT_INT32"}, "T": {"type": "DT_FLOAT"}}}, {"name": "PartitionedCall/model_13/tf.compat.v1.transpose_19/transpose", "op": "Transpose", "input": ["PartitionedCall/model_13/tf.reshape_11/Reshape", "PartitionedCall/model_13/tf.compat.v1.transpose_19/transpose/perm"], "attr": {"_input_shapes": {"list": {"shape": [{"dim": [{"size": "1"}, {"size": "4"}, {"size": "16"}, {"size": "2058"}]}, {"dim": [{"size": "4"}]}]}}, "T": {"type": "DT_FLOAT"}, "Tperm": {"type": "DT_INT32"}}}, {"name": "PartitionedCall/model_13/tf.compat.v1.transpose_20/transpose", "op": "Transpose", "input": ["PartitionedCall/model_13/tf.compat.v1.transpose_19/transpose", "PartitionedCall/model_13/tf.compat.v1.transpose_20/transpose/perm"], "attr": {"Tperm": {"type": "DT_INT32"}, "_input_shapes": {"list": {"shape": [{"dim": [{"size": "1"}, {"size": "16"}, {"size": "4"}, {"size": "2058"}]}, {"dim": [{"size": "4"}]}]}}, "T": {"type": "DT_FLOAT"}}}, {"name": "PartitionedCall/model_13/tf.nn.softmax//model.22/dfl/Softmax", "op": "Softmax", "input": ["PartitionedCall/model_13/tf.compat.v1.transpose_20/transpose"], "attr": {"T": {"type": "DT_FLOAT"}}}, {"name": "PartitionedCall/model_13/tf.nn.convolution_63/convolution", "op": "Conv2D", "input": ["PartitionedCall/model_13/tf.nn.softmax//model.22/dfl/Softmax", "12745"], "device": "/device:CPU:0", "attr": {"strides": {"list": {"i": ["1", "1", "1", "1"]}}, "explicit_paddings": {"list": {}}, "padding": {"s": "U0FNRQ=="}, "T": {"type": "DT_FLOAT"}, "use_cudnn_on_gpu": {"b": true}, "data_format": {"s": "TkhXQw=="}, "_input_shapes": {"list": {"shape": [{"dim": [{"size": "1"}, {"size": "4"}, {"size": "2058"}, {"size": "16"}]}, {"dim": [{"size": "1"}, {"size": "1"}, {"size": "16"}, {"size": "1"}]}]}}, "dilations": {"list": {"i": ["1", "1", "1", "1"]}}}}, {"name": "PartitionedCall/model_13/tf.compat.v1.transpose_25/transpose", "op": "Transpose", "input": ["PartitionedCall/model_13/tf.nn.convolution_63/convolution", "PartitionedCall/model_13/tf.compat.v1.transpose_25/transpose/perm"], "attr": {"Tperm": {"type": "DT_INT32"}, "_input_shapes": {"list": {"shape": [{"dim": [{"size": "1"}, {"size": "4"}, {"size": "2058"}, {"size": "1"}]}, {"dim": [{"size": "4"}]}]}}, "T": {"type": "DT_FLOAT"}}}, {"name": "PartitionedCall/model_13/tf.reshape_14/Reshape", "op": "Reshape", "input": ["PartitionedCall/model_13/tf.compat.v1.transpose_25/transpose", "PartitionedCall/model_13/tf.reshape_14/Reshape/shape"], "attr": {"T": {"type": "DT_FLOAT"}, "Tshape": {"type": "DT_INT32"}}}, {"name": "PartitionedCall/model_13/tf.strided_slice_19/StridedSlice", "op": "StridedSlice", "input": ["PartitionedCall/model_13/tf.reshape_14/Reshape", "12747", "12749", "PartitionedCall/model_13/tf.strided_slice_19/ones_like"], "attr": {"shrink_axis_mask": {"i": "0"}, "new_axis_mask": {"i": "0"}, "end_mask": {"i": "5"}, "Index": {"type": "DT_INT64"}, "ellipsis_mask": {"i": "0"}, "begin_mask": {"i": "5"}, "T": {"type": "DT_FLOAT"}}}, {"name": "PartitionedCall/model_13/tf.strided_slice_18/StridedSlice", "op": "StridedSlice", "input": ["PartitionedCall/model_13/tf.reshape_14/Reshape", "12751", "12753", "PartitionedCall/model_13/tf.strided_slice_18/ones_like"], "attr": {"end_mask": {"i": "5"}, "begin_mask": {"i": "7"}, "Index": {"type": "DT_INT64"}, "shrink_axis_mask": {"i": "0"}, "T": {"type": "DT_FLOAT"}, "ellipsis_mask": {"i": "0"}, "new_axis_mask": {"i": "0"}}}, {"name": "PartitionedCall/model_13/tf.math.add_69/Add", "op": "AddV2", "input": ["12755", "PartitionedCall/model_13/tf.strided_slice_19/StridedSlice"], "attr": {"T": {"type": "DT_FLOAT"}}}, {"name": "PartitionedCall/model_13/tf.math.subtract/Sub", "op": "Sub", "input": ["12757", "PartitionedCall/model_13/tf.strided_slice_18/StridedSlice"], "attr": {"T": {"type": "DT_FLOAT"}}}, {"name": "PartitionedCall/model_13/tf.math.add_70/Add", "op": "AddV2", "input": ["PartitionedCall/model_13/tf.math.subtract/Sub", "PartitionedCall/model_13/tf.math.add_69/Add"], "attr": {"T": {"type": "DT_FLOAT"}}}, {"name": "PartitionedCall/model_13/tf.math.subtract_1/Sub", "op": "Sub", "input": ["PartitionedCall/model_13/tf.math.add_69/Add", "PartitionedCall/model_13/tf.math.subtract/Sub"], "attr": {"T": {"type": "DT_FLOAT"}}}, {"name": "PartitionedCall/model_13/tf.math.divide/truediv", "op": "Mul", "input": ["PartitionedCall/model_13/tf.math.add_70/Add", "ConstantFolding/PartitionedCall/model_13/tf.math.divide/truediv_recip"], "attr": {"T": {"type": "DT_FLOAT"}}}, {"name": "PartitionedCall/model_13/tf.concat_20/concat", "op": "ConcatV2", "input": ["PartitionedCall/model_13/tf.math.divide/truediv", "PartitionedCall/model_13/tf.math.subtract_1/Sub", "PartitionedCall/model_13/tf.concat_20/concat/axis"], "attr": {"Tidx": {"type": "DT_INT32"}, "N": {"i": "2"}, "T": {"type": "DT_FLOAT"}}}, {"name": "PartitionedCall/model_13/tf.math.multiply_195/Mul", "op": "Mul", "input": ["PartitionedCall/model_13/tf.concat_20/concat", "PartitionedCall/model_13/tf.math.multiply_195/Mul/y"], "attr": {"T": {"type": "DT_FLOAT"}}}, {"name": "PartitionedCall/model_13/output0/concat", "op": "ConcatV2", "input": ["PartitionedCall/model_13/tf.math.multiply_195/Mul", "PartitionedCall/model_13/tf.math.sigmoid_57/Sigmoid", "PartitionedCall/model_13/output0/concat/axis"], "attr": {"N": {"i": "2"}, "T": {"type": "DT_FLOAT"}, "Tidx": {"type": "DT_INT32"}}}, {"name": "Identity", "op": "Identity", "input": ["PartitionedCall/model_13/output0/concat"], "attr": {"T": {"type": "DT_FLOAT"}}}], "library": {}, "versions": {"producer": 1766}}, "weightsManifest": [{"paths": ["group1-shard1of11.bin", "group1-shard2of11.bin", "group1-shard3of11.bin", "group1-shard4of11.bin", "group1-shard5of11.bin", "group1-shard6of11.bin", "group1-shard7of11.bin", "group1-shard8of11.bin", "group1-shard9of11.bin", "group1-shard10of11.bin", "group1-shard11of11.bin"], "weights": [{"name": "ConstantFolding/PartitionedCall/model_13/tf.math.divide/truediv_recip", "shape": [1, 1, 1], "dtype": "float32"}, {"name": "12755", "shape": [1, 2, 2058], "dtype": "float32"}, {"name": "12747", "shape": [3], "dtype": "int32"}, {"name": "12749", "shape": [3], "dtype": "int32"}, {"name": "PartitionedCall/model_13/tf.strided_slice_19/ones_like", "shape": [3], "dtype": "int32"}, {"name": "12757", "shape": [1, 2, 2058], "dtype": "float32"}, {"name": "12741", "shape": [3], "dtype": "int32"}, {"name": "12743", "shape": [3], "dtype": "int32"}, {"name": "PartitionedCall/model_13/tf.strided_slice_16/StridedSlice/strides", "shape": [3], "dtype": "int32"}, {"name": "PartitionedCall/model_13/tf.reshape_11/Reshape/shape", "shape": [4], "dtype": "int32"}, {"name": "PartitionedCall/model_13/tf.compat.v1.transpose_19/transpose/perm", "shape": [4], "dtype": "int32"}, {"name": "PartitionedCall/model_13/tf.compat.v1.transpose_20/transpose/perm", "shape": [4], "dtype": "int32"}, {"name": "12745", "shape": [1, 1, 16, 1], "dtype": "float32"}, {"name": "PartitionedCall/model_13/tf.compat.v1.transpose_25/transpose/perm", "shape": [4], "dtype": "int32"}, {"name": "PartitionedCall/model_13/tf.reshape_14/Reshape/shape", "shape": [3], "dtype": "int32"}, {"name": "12751", "shape": [3], "dtype": "int32"}, {"name": "12753", "shape": [3], "dtype": "int32"}, {"name": "PartitionedCall/model_13/tf.strided_slice_18/ones_like", "shape": [3], "dtype": "int32"}, {"name": "PartitionedCall/model_13/tf.concat_20/concat/axis", "shape": [], "dtype": "int32"}, {"name": "PartitionedCall/model_13/tf.math.multiply_195/Mul/y", "shape": [1, 1, 2058], "dtype": "float32"}, {"name": "12679", "shape": [3, 3, 128, 64], "dtype": "float32"}, {"name": "12691", "shape": [64], "dtype": "float32"}, {"name": "12703", "shape": [3, 3, 64, 64], "dtype": "float32"}, {"name": "12715", "shape": [64], "dtype": "float32"}, {"name": "12727", "shape": [1, 1, 64, 64], "dtype": "float32"}, {"name": "12737", "shape": [64], "dtype": "float32"}, {"name": "12677", "shape": [3, 3, 128, 128], "dtype": "float32"}, {"name": "12689", "shape": [128], "dtype": "float32"}, {"name": "12701", "shape": [3, 3, 128, 128], "dtype": "float32"}, {"name": "12713", "shape": [128], "dtype": "float32"}, {"name": "12725", "shape": [1, 1, 128, 10], "dtype": "float32"}, {"name": "12739", "shape": [10], "dtype": "float32"}, {"name": "PartitionedCall/model_13/tf.concat_10/concat/axis", "shape": [], "dtype": "int32"}, {"name": "PartitionedCall/model_13/tf.compat.v1.transpose_2/transpose/perm", "shape": [4], "dtype": "int32"}, {"name": "PartitionedCall/model_13/tf.reshape_2/Reshape/shape", "shape": [3], "dtype": "int32"}, {"name": "12675", "shape": [3, 3, 256, 64], "dtype": "float32"}, {"name": "12687", "shape": [64], "dtype": "float32"}, {"name": "12699", "shape": [3, 3, 64, 64], "dtype": "float32"}, {"name": "12711", "shape": [64], "dtype": "float32"}, {"name": "12723", "shape": [1, 1, 64, 64], "dtype": "float32"}, {"name": "12733", "shape": [64], "dtype": "float32"}, {"name": "12673", "shape": [3, 3, 256, 128], "dtype": "float32"}, {"name": "12685", "shape": [128], "dtype": "float32"}, {"name": "12697", "shape": [3, 3, 128, 128], "dtype": "float32"}, {"name": "12709", "shape": [128], "dtype": "float32"}, {"name": "12721", "shape": [1, 1, 128, 10], "dtype": "float32"}, {"name": "12735", "shape": [10], "dtype": "float32"}, {"name": "PartitionedCall/model_13/tf.concat_13/concat/axis", "shape": [], "dtype": "int32"}, {"name": "PartitionedCall/model_13/tf.compat.v1.transpose_7/transpose/perm", "shape": [4], "dtype": "int32"}, {"name": "PartitionedCall/model_13/tf.reshape_5/Reshape/shape", "shape": [3], "dtype": "int32"}, {"name": "12671", "shape": [3, 3, 512, 64], "dtype": "float32"}, {"name": "12683", "shape": [64], "dtype": "float32"}, {"name": "12695", "shape": [3, 3, 64, 64], "dtype": "float32"}, {"name": "12707", "shape": [64], "dtype": "float32"}, {"name": "12719", "shape": [1, 1, 64, 64], "dtype": "float32"}, {"name": "12729", "shape": [64], "dtype": "float32"}, {"name": "12661", "shape": [4], "dtype": "int32"}, {"name": "12663", "shape": [4], "dtype": "int32"}, {"name": "PartitionedCall/model_13/tf.strided_slice_14/ones_like", "shape": [4], "dtype": "int32"}, {"name": "12631", "shape": [4], "dtype": "int32"}, {"name": "12633", "shape": [4], "dtype": "int32"}, {"name": "PartitionedCall/model_13/tf.strided_slice_12/ones_like", "shape": [4], "dtype": "int32"}, {"name": "12601", "shape": [4], "dtype": "int32"}, {"name": "12603", "shape": [4], "dtype": "int32"}, {"name": "PartitionedCall/model_13/tf.strided_slice_10/ones_like", "shape": [4], "dtype": "int32"}, {"name": "PartitionedCall/model_13/tf.compat.v1.image.resize_nearest_neighbor_1/ResizeNearestNeighbor/size", "shape": [2], "dtype": "int32"}, {"name": "PartitionedCall/model_13/tf.concat_7/concat/axis", "shape": [], "dtype": "int32"}, {"name": "12585", "shape": [1, 1, 384, 128], "dtype": "float32"}, {"name": "12587", "shape": [128], "dtype": "float32"}, {"name": "12589", "shape": [4], "dtype": "int32"}, {"name": "12591", "shape": [4], "dtype": "int32"}, {"name": "PartitionedCall/model_13/tf.strided_slice_11/ones_like", "shape": [4], "dtype": "int32"}, {"name": "12593", "shape": [3, 3, 64, 64], "dtype": "float32"}, {"name": "12595", "shape": [64], "dtype": "float32"}, {"name": "12597", "shape": [3, 3, 64, 64], "dtype": "float32"}, {"name": "12599", "shape": [64], "dtype": "float32"}, {"name": "PartitionedCall/model_13/tf.concat_8/concat/axis", "shape": [], "dtype": "int32"}, {"name": "12605", "shape": [1, 1, 192, 128], "dtype": "float32"}, {"name": "12607", "shape": [128], "dtype": "float32"}, {"name": "12609", "shape": [4, 2], "dtype": "int32"}, {"name": "12611", "shape": [3, 3, 128, 128], "dtype": "float32"}, {"name": "12613", "shape": [128], "dtype": "float32"}, {"name": "12577", "shape": [4], "dtype": "int32"}, {"name": "12579", "shape": [4], "dtype": "int32"}, {"name": "PartitionedCall/model_13/tf.strided_slice_8/ones_like", "shape": [4], "dtype": "int32"}, {"name": "PartitionedCall/model_13/tf.compat.v1.image.resize_nearest_neighbor/ResizeNearestNeighbor/size", "shape": [2], "dtype": "int32"}, {"name": "PartitionedCall/model_13/tf.concat_5/concat/axis", "shape": [], "dtype": "int32"}, {"name": "12561", "shape": [1, 1, 768, 256], "dtype": "float32"}, {"name": "12563", "shape": [256], "dtype": "float32"}, {"name": "12565", "shape": [4], "dtype": "int32"}, {"name": "12567", "shape": [4], "dtype": "int32"}, {"name": "PartitionedCall/model_13/tf.strided_slice_9/ones_like", "shape": [4], "dtype": "int32"}, {"name": "12569", "shape": [3, 3, 128, 128], "dtype": "float32"}, {"name": "12571", "shape": [128], "dtype": "float32"}, {"name": "12573", "shape": [3, 3, 128, 128], "dtype": "float32"}, {"name": "12575", "shape": [128], "dtype": "float32"}, {"name": "PartitionedCall/model_13/tf.concat_6/concat/axis", "shape": [], "dtype": "int32"}, {"name": "12581", "shape": [1, 1, 384, 256], "dtype": "float32"}, {"name": "12583", "shape": [256], "dtype": "float32"}, {"name": "PartitionedCall/model_13/tf.concat_9/concat/axis", "shape": [], "dtype": "int32"}, {"name": "12615", "shape": [1, 1, 384, 256], "dtype": "float32"}, {"name": "12617", "shape": [256], "dtype": "float32"}, {"name": "12619", "shape": [4], "dtype": "int32"}, {"name": "12621", "shape": [4], "dtype": "int32"}, {"name": "PartitionedCall/model_13/tf.strided_slice_13/ones_like", "shape": [4], "dtype": "int32"}, {"name": "12623", "shape": [3, 3, 128, 128], "dtype": "float32"}, {"name": "12625", "shape": [128], "dtype": "float32"}, {"name": "12627", "shape": [3, 3, 128, 128], "dtype": "float32"}, {"name": "12629", "shape": [128], "dtype": "float32"}, {"name": "PartitionedCall/model_13/tf.concat_11/concat/axis", "shape": [], "dtype": "int32"}, {"name": "12635", "shape": [1, 1, 384, 256], "dtype": "float32"}, {"name": "12637", "shape": [256], "dtype": "float32"}, {"name": "12639", "shape": [4, 2], "dtype": "int32"}, {"name": "12641", "shape": [3, 3, 256, 256], "dtype": "float32"}, {"name": "12643", "shape": [256], "dtype": "float32"}, {"name": "12545", "shape": [4], "dtype": "int32"}, {"name": "12547", "shape": [4], "dtype": "int32"}, {"name": "PartitionedCall/model_13/tf.strided_slice_6/ones_like", "shape": [4], "dtype": "int32"}, {"name": "12515", "shape": [4], "dtype": "int32"}, {"name": "12517", "shape": [4], "dtype": "int32"}, {"name": "PartitionedCall/model_13/tf.strided_slice_4/ones_like", "shape": [4], "dtype": "int32"}, {"name": "12477", "shape": [4], "dtype": "int32"}, {"name": "12479", "shape": [4], "dtype": "int32"}, {"name": "PartitionedCall/model_13/tf.strided_slice_2/ones_like", "shape": [4], "dtype": "int32"}, {"name": "12439", "shape": [4], "dtype": "int32"}, {"name": "12441", "shape": [4], "dtype": "int32"}, {"name": "PartitionedCall/model_13/tf.strided_slice/ones_like", "shape": [4], "dtype": "int32"}, {"name": "12411", "shape": [4, 2], "dtype": "int32"}, {"name": "12413", "shape": [3, 3, 3, 32], "dtype": "float32"}, {"name": "12415", "shape": [32], "dtype": "float32"}, {"name": "12417", "shape": [4, 2], "dtype": "int32"}, {"name": "12419", "shape": [3, 3, 32, 64], "dtype": "float32"}, {"name": "12421", "shape": [64], "dtype": "float32"}, {"name": "12423", "shape": [1, 1, 64, 64], "dtype": "float32"}, {"name": "12425", "shape": [64], "dtype": "float32"}, {"name": "12427", "shape": [4], "dtype": "int32"}, {"name": "12429", "shape": [4], "dtype": "int32"}, {"name": "PartitionedCall/model_13/tf.strided_slice_1/ones_like", "shape": [4], "dtype": "int32"}, {"name": "12431", "shape": [3, 3, 32, 32], "dtype": "float32"}, {"name": "12433", "shape": [32], "dtype": "float32"}, {"name": "12435", "shape": [3, 3, 32, 32], "dtype": "float32"}, {"name": "12437", "shape": [32], "dtype": "float32"}, {"name": "PartitionedCall/model_13/tf.concat/concat/axis", "shape": [], "dtype": "int32"}, {"name": "12443", "shape": [1, 1, 96, 64], "dtype": "float32"}, {"name": "12445", "shape": [64], "dtype": "float32"}, {"name": "12447", "shape": [4, 2], "dtype": "int32"}, {"name": "12449", "shape": [3, 3, 64, 128], "dtype": "float32"}, {"name": "12451", "shape": [128], "dtype": "float32"}, {"name": "12453", "shape": [1, 1, 128, 128], "dtype": "float32"}, {"name": "12455", "shape": [128], "dtype": "float32"}, {"name": "12457", "shape": [4], "dtype": "int32"}, {"name": "12459", "shape": [4], "dtype": "int32"}, {"name": "PartitionedCall/model_13/tf.strided_slice_3/ones_like", "shape": [4], "dtype": "int32"}, {"name": "12461", "shape": [3, 3, 64, 64], "dtype": "float32"}, {"name": "12463", "shape": [64], "dtype": "float32"}, {"name": "12465", "shape": [3, 3, 64, 64], "dtype": "float32"}, {"name": "12467", "shape": [64], "dtype": "float32"}, {"name": "12469", "shape": [3, 3, 64, 64], "dtype": "float32"}, {"name": "12471", "shape": [64], "dtype": "float32"}, {"name": "12473", "shape": [3, 3, 64, 64], "dtype": "float32"}, {"name": "12475", "shape": [64], "dtype": "float32"}, {"name": "PartitionedCall/model_13/tf.concat_1/concat/axis", "shape": [], "dtype": "int32"}, {"name": "12481", "shape": [1, 1, 256, 128], "dtype": "float32"}, {"name": "12483", "shape": [128], "dtype": "float32"}, {"name": "12485", "shape": [4, 2], "dtype": "int32"}, {"name": "12487", "shape": [3, 3, 128, 256], "dtype": "float32"}, {"name": "12489", "shape": [256], "dtype": "float32"}, {"name": "12491", "shape": [1, 1, 256, 256], "dtype": "float32"}, {"name": "12493", "shape": [256], "dtype": "float32"}, {"name": "12495", "shape": [4], "dtype": "int32"}, {"name": "12497", "shape": [4], "dtype": "int32"}, {"name": "PartitionedCall/model_13/tf.strided_slice_5/ones_like", "shape": [4], "dtype": "int32"}, {"name": "12499", "shape": [3, 3, 128, 128], "dtype": "float32"}, {"name": "12501", "shape": [128], "dtype": "float32"}, {"name": "12503", "shape": [3, 3, 128, 128], "dtype": "float32"}, {"name": "12505", "shape": [128], "dtype": "float32"}, {"name": "12507", "shape": [3, 3, 128, 128], "dtype": "float32"}, {"name": "12509", "shape": [128], "dtype": "float32"}, {"name": "12511", "shape": [3, 3, 128, 128], "dtype": "float32"}, {"name": "12513", "shape": [128], "dtype": "float32"}, {"name": "PartitionedCall/model_13/tf.concat_2/concat/axis", "shape": [], "dtype": "int32"}, {"name": "12519", "shape": [1, 1, 512, 256], "dtype": "float32"}, {"name": "12521", "shape": [256], "dtype": "float32"}, {"name": "12523", "shape": [4, 2], "dtype": "int32"}, {"name": "12525", "shape": [3, 3, 256, 512], "dtype": "float32"}, {"name": "12527", "shape": [512], "dtype": "float32"}, {"name": "12529", "shape": [1, 1, 512, 512], "dtype": "float32"}, {"name": "12531", "shape": [512], "dtype": "float32"}, {"name": "12533", "shape": [4], "dtype": "int32"}, {"name": "12535", "shape": [4], "dtype": "int32"}, {"name": "PartitionedCall/model_13/tf.strided_slice_7/ones_like", "shape": [4], "dtype": "int32"}, {"name": "12537", "shape": [3, 3, 256, 256], "dtype": "float32"}, {"name": "12539", "shape": [256], "dtype": "float32"}, {"name": "12541", "shape": [3, 3, 256, 256], "dtype": "float32"}, {"name": "12543", "shape": [256], "dtype": "float32"}, {"name": "PartitionedCall/model_13/tf.concat_3/concat/axis", "shape": [], "dtype": "int32"}, {"name": "12549", "shape": [1, 1, 768, 512], "dtype": "float32"}, {"name": "12551", "shape": [512], "dtype": "float32"}, {"name": "12553", "shape": [1, 1, 512, 256], "dtype": "float32"}, {"name": "12555", "shape": [256], "dtype": "float32"}, {"name": "PartitionedCall/model_13/tf.concat_4/concat/axis", "shape": [], "dtype": "int32"}, {"name": "12557", "shape": [1, 1, 1024, 512], "dtype": "float32"}, {"name": "12559", "shape": [512], "dtype": "float32"}, {"name": "PartitionedCall/model_13/tf.concat_12/concat/axis", "shape": [], "dtype": "int32"}, {"name": "12645", "shape": [1, 1, 768, 512], "dtype": "float32"}, {"name": "12647", "shape": [512], "dtype": "float32"}, {"name": "12649", "shape": [4], "dtype": "int32"}, {"name": "12651", "shape": [4], "dtype": "int32"}, {"name": "PartitionedCall/model_13/tf.strided_slice_15/ones_like", "shape": [4], "dtype": "int32"}, {"name": "12653", "shape": [3, 3, 256, 256], "dtype": "float32"}, {"name": "12655", "shape": [256], "dtype": "float32"}, {"name": "12657", "shape": [3, 3, 256, 256], "dtype": "float32"}, {"name": "12659", "shape": [256], "dtype": "float32"}, {"name": "PartitionedCall/model_13/tf.concat_14/concat/axis", "shape": [], "dtype": "int32"}, {"name": "12665", "shape": [1, 1, 768, 512], "dtype": "float32"}, {"name": "12667", "shape": [512], "dtype": "float32"}, {"name": "12669", "shape": [3, 3, 512, 128], "dtype": "float32"}, {"name": "12681", "shape": [128], "dtype": "float32"}, {"name": "12693", "shape": [3, 3, 128, 128], "dtype": "float32"}, {"name": "12705", "shape": [128], "dtype": "float32"}, {"name": "12717", "shape": [1, 1, 128, 10], "dtype": "float32"}, {"name": "12731", "shape": [10], "dtype": "float32"}, {"name": "PartitionedCall/model_13/tf.concat_15/concat/axis", "shape": [], "dtype": "int32"}, {"name": "PartitionedCall/model_13/tf.compat.v1.transpose_12/transpose/perm", "shape": [4], "dtype": "int32"}, {"name": "PartitionedCall/model_13/tf.reshape_8/Reshape/shape", "shape": [3], "dtype": "int32"}, {"name": "PartitionedCall/model_13/tf.concat_16/concat/axis", "shape": [], "dtype": "int32"}, {"name": "12761", "shape": [3], "dtype": "int32"}, {"name": "12763", "shape": [3], "dtype": "int32"}, {"name": "PartitionedCall/model_13/tf.strided_slice_17/StridedSlice/strides", "shape": [3], "dtype": "int32"}, {"name": "PartitionedCall/model_13/output0/concat/axis", "shape": [], "dtype": "int32"}]}]}